package/model/model.pt (torch, 71924 bytes, 6 tensors)

layer1.weight f4 [128, 4]
00000000: 9552 fe3c a45c 97bd a355 cfbe 3593 7e3e
00000010: 1cef 9dbe 5199 e73e b975 353e a49c cabe
00000020: 9838 03bf 393c 14bd 7496 213e ac99 80be
00000030: ec59 853e bc42 e0be b651 05bf 5919 e63e
00000040: 0bfa 6f3e 9497 c23e ed26 333e e53f d03d
00000050: e2d7 b0be 71c0 edbe 10ca 8fbe 8154 69bd
00000060: 802b ffbe 671a d63e 590a 093c 3b8d 473e
00000070: 849c 19be 1e34 0bbd d072 d4be 5a0a a2bd
00000080: b234 8e3e a810 67be b98b c8bd fe0f cd3c
00000090: f451 b83d 6614 003f 167a f63e 85cd 1e3e
000000a0: 5b8a c0bd b783 433e 1d2d 69be 12ed f9be
000000b0: 7b27 9ebe fe12 113e e31d 263e 6534 633e
000000c0: 64fd b43d 0745 9ebe d428 cbbb 9839 60be
000000d0: 08e3 e4bd 0bc4 b93e 1cbf a1be 4a60 e4bd
000000e0: 4e13 0dbe b934 4dbd baa2 e53e 6c4f 0f3e
000000f0: 264a df3e bb11 89be 89b5 bb3e eca4 09bf
00000100: b783 bd3e 26b8 aebe 953d 383e 7369 f63e
00000110: 705e 05bf b141 acbe 855e cebd a720 32be
00000120: cd98 de3e e471 0f3e 731f f73c 1999 b2bc
00000130: 7fa2 29be 9f0a 42bd 5b45 6b3c b423 c23c
00000140: 4e5e da3e 6ed5 4e3d 775e f53d dcd3 073e
00000150: e820 943c 8c06 343e 6cbf e9be f28e 9f3e
00000160: dbe3 6dbd 1855 babe 6344 afbe edd5 9e3e
00000170: 2fb4 b03e c10d c23e 6379 f5be f363 503e
00000180: 0b8f 263e 1100 f53e 99fb 793e 02b8 503e
00000190: df25 b5bd ceb6 cc3e df7c fabe e365 c5bd
000001a0: 14a5 cabe e75e 8a3d 768b bfbe e1d3 593e
000001b0: 3bd3 e53e 54bd f3be 1b4e a8be ba3d 73bd
000001c0: 8c38 e63e 281d 6e3e da2a ef3e 20a6 503e
000001d0: 2b86 c2be 4cbe bcbe e841 963d 7fcd e13e
000001e0: a4ac 3c3e 7dda ba3d a634 08bf 8b5e 2dbe
000001f0: 29ca 62bd 8960 ec3a 6828 ecbe e520 c03e
00000200: 281d 6d3c fd35 9b3d ae1a b33e 8fc1 143e
00000210: 8dfa 2dbe 405a 0b3e c553 613e 8584 bcbe
00000220: a069 8cbe 73fd ca3e 3c10 1b3e a5b7 fe3c
00000230: 12ef d9be 9c94 893e 4260 223e 143f 1b3e
00000240: 89ea e7be 9f84 d7be 08e2 de3e d4ff 3abe
00000250: 9175 793e 2953 8a3e 6d41 cd3d a0a5 1c3e
00000260: 4456 0dbe b323 47be 6cd3 bbbe 59de eebd
00000270: 3aa8 423e 9ced 6d3e 8644 a53e 42b7 403e
00000280: 256f fa3d 4d7f ff3e 77b4 883e ef3d 1ebe
00000290: d360 b33e 0d68 963e 0aae f7be db8f bb3e
000002a0: 2c92 bbbe c684 883e b3cb 40bd 7a3b 9abe
000002b0: c59f ba3d 1cc8 b43b d835 96be 830e 8abb
000002c0: a544 d23e fbf9 7e3d 8a8b 553e 83d0 7dbc
000002d0: bfa0 f6bd 047e debe e51e 783e fc1e 9cbe
000002e0: 40eb dd3e 1f38 cd3e e9aa c23d 30d4 943e
000002f0: 0962 0abd a2e9 80bc 5803 a03c b945 c93e
00000300: 36d8 b33e 0b26 88be 1500 6f3d 8845 f3be
00000310: c062 7a3e b392 3b3c 6c33 9d3e bea2 2b3e
00000320: ab35 173c e9ac e33e 6a0a b73d fbaf d6be
00000330: ae6a b33e caaa dcbe 26b0 873e ed29 0ebd
00000340: 501d bc3e 1cf5 d73d 9c1d 6abe 2ac9 5d3e
00000350: aacc c4bc fec7 713e 6b32 bfbe 111f 87bd
00000360: 1295 3b3e dfd4 a33e e85a a13e 1625 b23e
00000370: 636c 29be 0288 5bbe 4312 ba3b 3845 e9be
00000380: 93e1 b0be d5aa 613e 087f e7be ed90 7e3e
00000390: af90 9abe c8bd e53e 9163 e2be 9466 4ebe
000003a0: 21f5 fd3e 5c40 3ebe 79fc 8cbe 0a5e 1a3e
000003b0: 737f c9be b178 ffbe 0856 81bd e78c e8be
000003c0: de95 df3e 8b99 edbe ef36 70be 4ed9 bdbe
000003d0: 7817 da3c 3335 c23d 1850 7f3d 67d2 323d
000003e0: e1fa c7bd 8c92 ecbd c6dd d4be 66ff 5c3e
000003f0: abe2 98bd 4738 8dbe a78e bc3e 3523 1c3e
0.031045238 -0.07390717 -0.40495023 0.24860843 -0.30846488 0.4523416 0.17720689 -0.39572632
-0.5125823 -0.036190245 0.1578005 -0.25117242 0.26045167 -0.43800914 -0.52077806 0.44941214
0.23435228 0.3800627 0.17495318 0.10168437 -0.34539706 -0.46435884 -0.2808385 -0.056965355
-0.49837875 0.41817018 0.0083642835 0.19487469 -0.15001112 -0.03398525 -0.41493845 -0.07912131
0.27774578 -0.22564948 -0.09792275 0.02503204 0.09000006 0.50031126 0.4814002 0.15508087
-0.09401389 0.19093214 -0.22771116 -0.48813683 -0.30889496 0.14167401 0.16222338 0.22187956
0.08837393 -0.3091204 -0.0061999355 -0.2189697 -0.11176115 0.3628238 -0.31591117 -0.11151178
-0.13776895 -0.05009911 0.44850713 0.13995141 0.43611258 -0.2677134 0.36661938 -0.53767276
0.37014553 -0.3412487 0.17992242 0.48127326 -0.52097225 -0.3364387 -0.10076622 -0.17395268
0.43475953 0.1400829 0.030166363 -0.021801518 -0.16565894 -0.04737341 0.014359797 0.023698665
0.42650074 0.05049651 0.11980908 0.13264412 0.018082097 0.17580622 -0.45653856 0.31163746
-0.058078628 -0.36393046 -0.34231862 0.31022587 0.3451247 0.37901118 -0.47944173 0.20350628
0.16265504 0.47851613 0.24412383 0.20382693 -0.08845114 0.3998322 -0.48923394 -0.09638574
-0.3957907 0.067563824 -0.37411088 0.21272232 0.4488772 -0.47605383 -0.3287209 -0.05938504
0.44965017 0.2325331 0.4671238 0.20375872 -0.37992987 -0.36863935 0.07336789 0.44102094
0.18425232 0.091237046 -0.53205335 -0.16930597 -0.055368576 0.0018034141 -0.46124578 0.37525097
0.014472283 0.07578657 0.34981292 0.14526962 -0.16990109 0.13608646 0.22004612 -0.36819854
-0.27424335 0.3964649 0.15142912 0.031093428 -0.4256521 0.26871192 0.15857032 0.15160781
-0.45296124 -0.4209337 0.43531823 -0.18261653 0.24361254 0.2701657 0.100222446 0.15297556
-0.13802439 -0.19447212 -0.3668474 -0.11663503 0.19009486 0.23235172 0.32278842 0.18819907
0.122282304 0.4990181 0.26700184 -0.15453313 0.3503481 0.2937626 -0.4837497 0.3663319
-0.36634958 0.26663798 -0.047069263 -0.30123502 0.09112505 0.005517019 -0.29337955 -0.0042131557
0.41067997 0.06225012 0.20854011 -0.015491608 -0.12042379 -0.43455517 0.24230535 -0.3049239
0.43343544 0.4008188 0.09505255 0.29068136 -0.0337849 -0.015736405 0.019532844 0.39311007
0.35125893 -0.26591524 0.058349688 -0.47513986 0.24451733 0.01144855 0.30703294 0.167613
0.009229104 0.44467857 0.08937533 -0.41931137 0.35042328 -0.43099052 0.26501578 -0.034707952
0.36741114 0.10544798 -0.22862858 0.21658769 -0.024023373 0.23611447 -0.37343153 -0.06597722
0.18318585 0.31998345 0.31514668 0.3479392 -0.16545253 -0.21438602 0.0056784465 -0.45560622
-0.345471 0.22037823 -0.45214105 0.24859972 -0.3018851 0.44871354 -0.44216588 -0.20156318
0.4960108 -0.18579239 -0.2753637 0.15074936 -0.3935505 -0.49896768 -0.06315237 -0.4542
0.43669027 -0.46406206 -0.23458456 -0.37079853 0.026622519 0.09482803 0.062332243 0.043657687
-0.09764648 -0.11551389 -0.4157545 0.21581802 -0.074651085 -0.27582 0.36827585 0.15247805

layer1.bias f4 [128]
00000000: 9884 30be f48e 0e3e 79f0 4f3d b677 6a3e
00000010: cc9c cb3e a4a1 b6bd bd63 063f d4ee b3be
00000020: 38ed 403e e6e3 863b 3895 6e3d e300 a33e
00000030: 3485 8a3e 6eb5 f0be 4658 e73e 219b c5be
00000040: 4398 6d3e 9a85 d2bd 7e3e aa3e 1fd3 123e
00000050: 3213 253d 7bfa 043e f1b2 e7bc 83d8 8f3e
00000060: 20f5 a13d 9528 cdbe 7316 f13e 8652 62be
00000070: 4e1f b1be 1d2f b5bc e2b7 3ebe 3e69 283e
00000080: 3833 cd3e 99ac 0c3d a1ef b23d 72f0 f2be
00000090: 4d74 a3bd 6851 823e 4a70 823e 6c18 c0be
000000a0: 411e ddbe ee75 093f 2da7 d53d b261 be3e
000000b0: fd68 0b3e cc80 f63e e188 de3e cee6 2dbe
000000c0: 735c 3c3e 20d2 9cbd bfaf ca3d 6783 663e
000000d0: 1ec9 c43e 0578 e53e b163 efbd c302 ea3d
000000e0: 8ff5 ed3e 9a27 a53e 0339 803e b8fa b13e
000000f0: 23cb 25be 196f b73e c44a 56be 54ad 9dbd
00000100: fc4f e4be bea2 d4be a69a b73e 9f9a bfbd
00000110: cd40 aabc 0103 0b3f 559f 193e 5ca6 f3bd
00000120: c77b e33e e025 fa3e 70ae 053f 098c 963d
00000130: c33f d1bc bcb1 8a3e 2615 9d3e 255b ca3e
00000140: 5328 253e acfd c3bd 51ae 853d 2aeb 0cbe
00000150: 026e 8b3e df53 5fbe 3edb d63e 28e7 f33e
00000160: 8c94 093f baf8 febe 3e19 e2bc 135d 89be
00000170: 9114 ba3e e8a7 d1bd 0e36 ab3e dace 4d3e
00000180: 2448 f2bd 6569 b13d 61d9 063f 2631 1cbe
00000190: 59c0 a53e 156d 393c f224 d43a aa0e ed3e
000001a0: 748b a2be 0b4f d4bd 16ab 03be 9414 bc3e
000001b0: fc39 813e 1f85 1dbe e114 92be dbcb ad3d
000001c0: 534e 0a3f e5ac 053f 3e1b d1be 296e 44be
000001d0: 67cd 06be bcf4 efbe 3dd8 d93e 043b 243d
000001e0: 7f8e 9a3e 2d9a da3e 49be 753e e543 9a3e
000001f0: e86d a03e 38b2 92be de77 bebe 30ff 8f3e
-0.1723808 0.1392172 0.050766442 0.22897229 0.39768064 -0.08917549 0.5249594 -0.3514315
0.18840492 0.004116523 0.058247775 0.31836614 0.2705475 -0.4701342 0.45184535 -0.38594916
0.23202614 -0.10279389 0.33250803 0.14338349 0.04030151 0.12986176 -0.028283568 0.28094873
0.07908082 -0.40070024 0.4708744 -0.22101793 -0.34594196 -0.022117192 -0.18624833 0.16446397
0.4007814 0.03434429 0.08737112 -0.4744907 -0.07981167 0.25452733 0.25476295 -0.37518632
-0.43187144 0.5369557 0.10432277 0.3718391 0.13614269 0.4814514 0.43463805 -0.16982576
0.18394642 -0.07657266 0.09896802 0.22511064 0.3843469 0.4481813 -0.116889365 0.11426308
0.4647641 0.32256776 0.25043496 0.34761596 -0.16190772 0.35826948 -0.20926958 -0.07699075
-0.44592273 -0.41530412 0.35860175 -0.093556635 -0.020782853 0.5430146 0.15002187 -0.11896965
0.44430372 0.4885702 0.52219296 0.07350928 -0.0255431 0.27088726 0.30680197 0.39522663
0.16128664 -0.095698684 0.06527389 -0.13761583 0.27232367 -0.21809338 0.41964144 0.47637296
0.5374229 -0.49799138 -0.027599927 -0.26828822 0.36343816 -0.10237104 0.33439678 0.20098439
-0.11830166 0.086626805 0.52675444 -0.15253124 0.32373312 0.011317511 0.0016185327 0.4630025
-0.3174702 -0.10366639 -0.12858233 0.3673445 0.2523955 -0.15382813 -0.28531554 0.08486148
0.54025763 0.5221694 -0.40841097 -0.19182648 -0.13164292 -0.46866405 0.4254779 0.040095344
0.3018684 0.42695752 0.2399837 0.30129924 0.31333852 -0.28651595 -0.37200826 0.2812438

layer2.weight f4 [128, 128]
00000000: 0068 1c3d b375 a93b a5c7 903b 8c49 363d
00000010: 9ad9 8abd c48a 5a3d 7d12 78bd 5021 9bbd
00000020: 22d4 42bd a3ec 553d c2ea fbbc f64f ccbb
00000030: 0c49 0a3c f38e 523c 24df c33c 51e4 92bd
00000040: 012a 25bd 8737 a33c afb7 59bc 9cd4 113b
00000050: eb31 44bd d5b7 5ebd f3ef 473d 5849 93bd
00000060: a349 e039 c4bf 923c 54f5 173d 8cb0 a2bd
00000070: 8179 39bd 590f b43d b9c4 bdbb c3ad 9abd
00000080: 3e6a acbd 4496 0cbd 4446 813d b28a 04bd
00000090: c7fb 0e3b fe63 223c 7477 a3bb 1c25 623d
000000a0: 2182 2fbd ab71 97bd 5de0 2bbd 52ac febc
000000b0: b9f9 523c 42cf 973d 71e7 14bc 77d3 8abc
000000c0: f7e6 213c 7741 a6bd e6d3 403d ac7b b2bd
000000d0: 3a86 cd3c bfda 433b 7fd1 823c a366 c13c
000000e0: 9684 3fbb e9ea 8fbd b460 863d 6433 15bd
000000f0: edde d1bb 9d96 2f3d dadf 943d 6165 233d
00000100: beb3 eb3c 601c 02bd ffdd 79bd ae70 b1bd
00000110: 0d7d 5bbd 3190 273d 8df6 593d f2c3 9c3d
00000120: 72f3 703c 96ed 25bd 0f4c 7bbd ca24 9f3c
00000130: 7715 a8bd 76e8 9d3d 5bf2 673c 5bb3 153c
00000140: 8a8d 43bd ed40 86bd 41fd f53c 885d d83c
00000150: 0c6f 733d 12df 9cbd 53e9 66bc f498 0a3c
00000160: 5ceb 023d 43d2 16bd 3c61 34bd 4f22 f2bb
00000170: 3c98 1dbd 4080 233c 0693 59bd 54f8 c43c
00000180: 40f9 afbd 1500 56bd 2c29 3b3d f77e 85bd
00000190: 16dc 53bc 42fb f8bc ee09 713d 9fe6 993c
000001a0: 93b3 afbd f139 0f3d f9d8 57bc 6dee 7b3c
000001b0: 4cb2 de3c e43b 013d 9ea7 963d 2dc3 a73d
000001c0: 61b7 173d fa40 9c3d f9a3 5d3d 1e28 9abc
000001d0: bcea 493d 88a1 8dbd 2c35 8c3d 9834 7f3d
000001e0: f7fc 903c 24b4 85bd 3a52 48bc 19b3 ff3c
000001f0: baa1 2b3d 0e39 033d 610e 0abd 4b0b afbd
00000200: 5f25 cebc 810a adbd d5e6 52bd d159 78bd
00000210: 2d9e aa3c 394f c3bd 5f22 2c3d b29d 75bd
00000220: 7047 8bbd d742 a83d d250 aabd 5037 14bd
00000230: 2b81 bb3c a9dd 4ebc 271a 16bd deb6 54bb
00000240: da38 9abd 8f0d be3c 45bc acbd 4359 9d3d
00000250: 39a3 543c 4058 2e3c b093 b43c d74d 983d
00000260: 5103 9ebd 4e65 f53c e7a0 7b3c 4285 00be
00000270: 36c9 0abc e4fb 9c3d 3652 b8bd a7d2 803d
00000280: f8b1 ee3b 3953 e9bc eff4 a33d d728 a83d
00000290: c134 ccbc cadc 8bbd be24 173d 734e a83d
000002a0: a0ab 753c 979e 183d 3c48 7a3d fcde 6abd
000002b0: 0b21 db3b 9709 023d f48b 86bc a3e9 bc3c
000002c0: b1e6 a9bd e7ed 8fbc 60b2 6b3d c980 0b3d
000002d0: 040d 103c ac11 933d 5692 0cbd ca2c bdbc
000002e0: 55e3 a33d ee88 ab3d c757 973d 9412 4f3c
000002f0: a7eb 1c3c 9fda 6b3d c354 593d 68ac 8bbd
00000300: f418 abbd 7e16 8b3d 1ad0 0f3d 9738 02bd
00000310: ba02 94bd a779 2ebc 7506 333d d6e9 6fbd
00000320: ff1d ed3c f5f6 febc 867a 2e3c 3470 90bd
00000330: 6fc6 7eba 5b86 ff3b 6c4c 56bd cf66 df3c
00000340: 9a5f 313d 8720 44bd 34d6 57bd cedc a4bc
00000350: b448 b9bd 5c2f 24bd 2409 c6ba f77f 15bd
00000360: 361f 823d 2f6b 8bbc 9a31 863c b427 a1bd
00000370: 45da aabd cb8b 3bbd 8f31 053d aeb3 7cbd
00000380: 9293 973d ca1a a03d f7a8 70bd 0fe3 903b
00000390: fbe1 1dbd d821 953d 0da8 c4bb 1cae 33bd
000003a0: 7420 c2bd 56c1 8abd b201 89bd 91b3 993c
000003b0: 61ff c2bb 4796 813c a354 353d 245a a6bd
000003c0: 33f0 1e3d 4cff 9b3d f9c1 29bd 81aa c5bd
000003d0: 6a0f 593d a1fb 84bd 441f e8bc 7d14 aabd
000003e0: d3fb edbc 1a38 943b f9fe 763d 1a4e 9a3d
000003f0: abdc c83c f446 85bd a8dc 0cbd deec 393d
0.03818512 0.0051715015 0.0044183307 0.044503734 -0.067797855 0.053354993 -0.060564507 -0.07574713
-0.047565587 0.052227627 -0.03075159 -0.006235118 0.008440267 0.012851465 0.023910113 -0.07172454
-0.04032326 0.019923938 -0.0132884225 0.002225197 -0.047899168 -0.054374535 0.048812818 -0.071917236
0.00042779473 0.017913707 0.037099198 -0.0794383 -0.04528189 0.0879199 -0.0057912734 -0.07552674
-0.084187016 -0.034322992 0.0631223 -0.032358833 0.0021817551 0.009911535 -0.004988605 0.05521117
-0.04284871 -0.07394727 -0.041962016 -0.031088028 0.012876921 0.07412578 -0.009088383 -0.016946537
0.0098817265 -0.08117955 0.047077082 -0.08714995 0.025088418 0.0029885022 0.015969036 0.023608511
-0.0029223314 -0.070272274 0.065614134 -0.036425963 -0.0064047487 0.042868245 0.07269259 0.039891604
0.028772231 -0.03176534 -0.061002728 -0.0866407 -0.053586055 0.040908996 0.053213645 0.07654561
0.014706479 -0.040509783 -0.061351832 0.019426722 -0.08207219 0.07710354 0.014156903 0.009137
-0.047742404 -0.06555352 0.030027987 0.026411787 0.059432074 -0.07659735 -0.014093715 0.008459318
0.031962737 -0.036821615 -0.044038042 -0.007389344 -0.03847526 0.009979308 -0.053118728 0.024044193
-0.085924625 -0.052246172 0.04569356 -0.06518357 -0.012930891 -0.030393247 0.05884736 0.018786727
-0.08579173 0.034967367 -0.013174289 0.015376669 0.027184628 0.031551257 0.07356189 0.08191524
0.037040118 0.07629581 0.054111455 -0.018817957 0.049296126 -0.06915575 0.06846079 0.062306017
0.017698748 -0.065285 -0.012226636 0.03121333 0.04190228 0.032036833 -0.03370512 -0.08547076
-0.025164304 -0.08449269 -0.05148967 -0.06063253 0.020827377 -0.09536595 0.042024966 -0.059964843
-0.06800735 0.08215874 -0.083161965 -0.036185563 0.02288874 -0.01262609 -0.036646035 -0.003245763
-0.07530375 0.023199825 -0.08434347 0.07683041 0.012978368 0.010641158 0.02204308 0.07436722
-0.07715476 0.029955532 0.015358186 -0.12550834 -0.008470824 0.07665232 -0.090000555 0.06290179
0.007284399 -0.028482066 0.08005702 0.082109146 -0.024927499 -0.068292215 0.036900274 0.08218088
0.014994532 0.037260618 0.061104044 -0.05734156 0.0066872886 0.031747427 -0.016424157 0.023060625
-0.08295954 -0.017569495 0.05754316 0.034058366 0.008792166 0.07181105 -0.034319244 -0.023092646
0.080023445 0.08375727 0.07389789 0.012638707 0.009577668 0.05758154 0.05305935 -0.06819993
-0.08354369 0.067913994 0.03511057 -0.03179225 -0.072270826 -0.010649121 0.04370733 -0.058572613
0.028944967 -0.031123618 0.010649329 -0.07052651 -0.00097189 0.007797999 -0.052318975 0.027270703
0.043304063 -0.047882583 -0.052694514 -0.02012482 -0.0904707 -0.040084228 -0.0015108925 -0.03649899
0.06353609 -0.017018883 0.016381074 -0.07868901 -0.08342413 -0.045787614 0.032517966 -0.061694793
0.07401194 0.078176096 -0.058754887 0.0044215987 -0.03854559 0.07281846 -0.0060014785 -0.043867216
-0.09478846 -0.06775157 -0.066897765 0.018762382 -0.0059508537 0.015818728 0.04427017 -0.08122662
0.03880329 0.076170534 -0.041444752 -0.09651662 0.052993216 -0.06493307 -0.028335221 -0.08304689
-0.029050743 0.0045232894 0.060301755 0.07534428 0.024519285 -0.06507674 -0.03439012 0.04539191

layer2.bias f4 [128]
00000000: 7eda 49bd 5ae2 753d 96bc 313d 4484 86bc
00000010: 7087 debb ef1d ed3d 0b35 3fbb 4315 bdbc
00000020: b878 92bd b7bb c23d 056e 9d3d af0d 773d
00000030: 7d6a ac3d 0a1c a83d e5ff 9c3d 44e7 38bd
00000040: 6e84 f13d bf0a 0abd a6c9 c33c 6827 02bc
00000050: e5d3 50bd 7d81 923d 900b d33c a9f5 263c
00000060: ff3b bc3d dba6 2bbc 4e6b 293d 8de6 2f3c
00000070: 6b94 193d 90fe cf3d a4b8 1fbd 457f 343d
00000080: 6f4d a33d 8532 193d 45d4 64bd a106 9c3b
00000090: 1cb4 1dbd c04f cc3d 4e63 b23d 595f f03c
000000a0: 4494 e6bb 8e27 b2bd fb38 bb3d 2714 803d
000000b0: b277 a53d 909e a8bd 3328 4ebd 2358 123d
000000c0: cf6b c8bb 7985 6fbb c436 8a3d 91cc 6ebb
000000d0: 2f00 47bd 3db8 97bd 94b4 9cbc 9a57 27bd
000000e0: 476e cfbc 9d2b b0bd faea 2ebd c89a 073e
000000f0: ebf5 3b3d 65a6 eabc c1f1 8fbd 02d8 a0bd
00000100: 6af5 593d 6fec acbd 94e2 c13d 1e4f e53d
00000110: a6cc 193d 1f82 05bd bbf2 773d 916e acbd
00000120: cafb d13d 1b05 99bd a49a c13d 047b 46bd
00000130: 7fe0 16bd 7f2a e13c 6b1f 053e 7b2b be3d
00000140: 6194 013c 477b 65bc 0c94 9d3d 140c 24bd
00000150: 5618 bb3d 167c b43d b31e 513d 5665 71bd
00000160: e6a4 4f3d 13f1 e8ba 3f5b 8a3d f9c4 4f3d
00000170: 2f02 45bc b9dc e33c 0468 993d d7bd 8d3c
00000180: d61f 613d bfd5 283d 9de1 9e3c b184 e6bb
00000190: 25dd 9cbc dda1 a33d 30e0 be3c 288e 7f3d
000001a0: effe 79bd de45 3a3c bad8 653d b157 243d
000001b0: 2353 db3c f424 49bd f654 28bd dbd8 d2bc
000001c0: fd45 873d 5cdf 22bd 40e6 d6bc c504 813c
000001d0: c166 a23c cbc6 883d 27cb 543d aacb ecbc
000001e0: 4f44 5dbd b692 abbd a818 7a3d 9d69 853d
000001f0: 3f1f c5bc 053e d63d ca07 8a3d 888f 9cbd
-0.049280636 0.06003032 0.04339274 -0.016420491 -0.0067910478 0.11577975 -0.0029175903 -0.023081427
-0.071519315 0.0950846 0.07687 0.060315784 0.084187485 0.08208473 0.076659955 -0.045142427
0.11792837 -0.033701655 0.023899864 -0.0079439655 -0.05098333 0.07153604 0.02576235 0.010190406
0.09191131 -0.010476793 0.0413621 0.01073612 0.037495058 0.10155976 -0.038994446 0.044066686
0.07973754 0.037401695 -0.0558665 0.0047615324 -0.038501844 0.099761486 0.08710347 0.02934234
-0.0070367176 -0.08698951 0.091417275 0.06253844 0.08079471 -0.082333684 -0.050331306 0.035728585
-0.0061163674 -0.0036548062 0.06748727 -0.003643785 -0.04858416 -0.074081875 -0.019129075 -0.040855028
-0.025321139 -0.086020686 -0.04270456 0.13242638 0.045888823 -0.028643796 -0.07028533 -0.078537
0.05321256 -0.08443534 0.094670445 0.11196731 0.037548684 -0.032594796 0.06053422 -0.08419526
0.10253103 -0.07471677 0.094533235 -0.04845716 -0.03683519 0.027486084 0.13000266 0.09285637
0.007908911 -0.014006442 0.07694253 -0.04005058 0.09135501 0.0881273 0.051054668 -0.058934532
0.05069437 -0.0017772041 0.06755685 0.050724957 -0.012024446 0.02781521 0.074905425 0.017302437
0.054962 0.04121947 0.01939469 -0.007034861 -0.019148419 0.07989857 0.02330026 0.06239143
-0.06103414 0.011369197 0.05611489 0.04012269 0.026773041 -0.049107507 -0.04109665 -0.02573817
0.06605146 -0.039763793 -0.026232839 0.015749345 0.019824388 0.06678542 0.051951554 -0.028905708
-0.054020222 -0.08377592 0.06105867 0.06514285 -0.02406275 0.10461048 0.06739767 -0.07644564

layer3.weight f4 [2, 128]
00000000: 6bfc e13c c1cc 3bbc ccec 1fbc ae06 e43d
00000010: 19d4 9fbd 0d0a 6b3d cfae 863c dff8 48bc
00000020: 53e9 0bbd 232d a43d 779f 22ba baf1 15bd
00000030: 0976 663d 35b4 7abd 22a0 8ebc e65b e63d
00000040: 38ce ab3d 92fb b2bd 2b79 c03d 4022 d73c
00000050: e6ea 88bd 84a3 8c3c 7cd3 8c3d 8eca 8d3c
00000060: 5aea 8b3d 269b d43d 3188 053e c74f 673d
00000070: 87aa 8d3d 891f 723d 5be7 7bbc d05a 683c
00000080: 072c dc3d 3456 043e 29ba aabd e8be 923d
00000090: e3e4 6ebd eb0d 1a3c 81ad babb 80fa a1bd
000000a0: 3556 ee3d 59c0 81bd df40 b83d 1a93 ebbb
000000b0: a053 813d 8177 85bc 6f8c 19bd a612 063e
000000c0: 62d3 89bd 0a50 84bc 676e 3b3d 077f 203d
000000d0: 674f 173b df5e 82bd 678b 953c aeb2 a3bd
000000e0: ba32 d5bd 1df8 713d ca22 a9bd 23c0 683c
000000f0: 2abd cb3d 9612 39bd 4296 d8bc a5fe 75bd
00000100: 2149 b53d 54f2 9abd 9bd4 3d3d a449 673d
00000110: 20d5 b03d 66bc 18bc 1896 72bd 97f7 703d
00000120: d3bd ac3d fbc9 b73c 5bb2 5a3d fa5a 3dbd
00000130: 189b e53c 1733 22bd ffc0 d43d 25a9 963d
00000140: 91d8 153b 8d66 0abe 26d1 023e 46eb bfbc
00000150: 4d33 883d d366 9d3d 6dec f6bc 05dd 9b3c
00000160: 7bcf 7abd a4f5 033e 81f3 af3d 28ed 953d
00000170: 0748 11bc 04a4 a4bd aacd 49bd 1d7a 1ebd
00000180: 22d7 3bbd 2515 493d 7b58 c33c 2198 68bd
00000190: 0d73 743c 32c6 46bd 99d3 70bd bee8 113d
000001a0: a3da 323d f59b 6f3d e910 0ebd cfc8 363c
000001b0: 3c65 283d eefb 8fbd 6c3b b3bd 3af8 1ebd
000001c0: 46bf 6d3d 4e2b c1bc 8ead 77bd e05f 7cbb
000001d0: f9d6 c53d d119 c93d 910b a2bc 488b acb8
000001e0: 3b73 89bd 53d3 afbd a274 e03d 0023 233c
000001f0: 2386 6cbc 5b97 c33b 44d1 aa3a 0cf9 6e3b
00000200: dd0b b23d 40fc ae3c a372 51bd dce1 823d
00000210: 1110 96bc 1c6e 803d 777e b73d a8c3 bfbc
00000220: f189 84bd f1d4 a13d 1e17 9b3d 5fe5 973c
00000230: 4c28 a03a 4a7a 2abd f2dc 90bb b086 d5bc
00000240: c445 f23c 9da0 793d 2a45 0e3d 16c2 5fbd
00000250: c636 283d e5e5 76bd 653e b13d 43ec 103e
00000260: 6f71 633d 7f1c d93d 1fe5 e73d f9a9 69bd
00000270: c714 6c3d 50f7 343d 2b73 4d3d 9b6f e83d
00000280: 2af2 a4bc 8797 883d be26 15bd 3b51 243d
00000290: 311e 63bd 7e8a d23d 8c75 fd3c ae98 693d
000002a0: 0b01 1e3d b74e d03c c713 c63d 6d71 99bd
000002b0: a4f9 923d 9a5c acbd bfe6 a7bd e641 833b
000002c0: 7ce7 3dbd 2213 c5bc 1c95 a53d 4970 8abd
000002d0: ace3 dfbd 5e84 e53c 8ca6 8dbd 38c6 eabc
000002e0: c9b6 193d fa78 9bbd fc7b cfbc 0a99 1f3d
000002f0: 9cb5 d23d 9945 4cbd 59e7 9bbd d567 033d
00000300: 0f74 813d 483f 8ebc 98d8 553d bdb5 453d
00000310: ae80 9d3d ec87 58bd be83 c73d 8fd4 9b3d
00000320: f7ae bc3c 5ad4 9cbd 8da1 d83c 4f97 c33c
00000330: 324e c63d 337d 6bbd 76e2 113d 507b 853d
00000340: 4cb8 34bd 9c16 a4bc 92bf 033e 83c4 dabb
00000350: 21a4 513c 85ad 103d 1a05 f73d 1197 8a3d
00000360: 898d b8bc a05e 853c f823 c63c 5c12 c73d
00000370: e0f7 a3bd 531e 2a3d 9db8 ef3d 0c7e 32bb
00000380: 0f7b 4d3c bfc5 023d c236 c43d 3e67 b93c
00000390: b0a1 07bd 66ba 453d 1dc1 ad3c 2d3a a23d
000003a0: ecb9 54bd 1fae a23d 1928 54bc 4fa8 de3d
000003b0: 2505 9abd 5d0b a7bc 74a5 383d c957 aebd
000003c0: 22dd 203c 1913 a1bc f971 0cbd dc6a 6bbd
000003d0: 078d 553c 3180 dd3d 9eba 80bb ef47 adbc
000003e0: 53b8 403c ceb0 3abc 986c 5a3c e769 e43d
000003f0: 4ff9 73bd 7a86 953d b714 d83d 6483 14bd
0.027586183 -0.011462391 -0.009761047 0.111340865 -0.07804126 0.057382632 0.016440777 -0.012266367
-0.034158062 0.08016422 -0.00062035717 -0.03660748 0.05626491 -0.061207015 -0.017410342 0.11247997
0.083889425 -0.087393895 0.09398111 0.026261449 -0.06685428 0.017167814 0.06876275 0.0173085
0.068318084 0.10381155 0.13040234 0.056472566 0.06917291 0.059112106 -0.015374984 0.014181808
0.10750585 0.12923509 -0.083362885 0.07165319 -0.058323752 0.009402732 -0.005696953 -0.07909107
0.116375364 -0.063355155 0.08996748 -0.0071891667 0.06314778 -0.016292335 -0.037487444 0.13093051
-0.06729771 -0.016151447 0.045759585 0.039183643 0.00230881 -0.063657515 0.018254949 -0.07993065
-0.10410066 0.05907451 -0.082585886 0.014205965 0.099481896 -0.04518374 -0.026438836 -0.0600573
0.08851839 -0.07565752 0.046345335 0.056466714 0.086344 -0.009322261 -0.05922517 0.05882987
0.084346436 0.022435179 0.05339275 -0.04622934 0.028028056 -0.039599504 0.103883736 0.073564805
0.002286468 -0.13515683 0.12775096 -0.023427617 0.0665041 0.07685628 -0.030142033 0.019026289
-0.061233025 0.12886673 0.085913666 0.073206246 -0.00886727 -0.08039096 -0.049268402 -0.038690675
-0.045859464 0.04909243 0.023845902 -0.056785706 0.014920008 -0.048528858 -0.058795545 0.03562235
0.04366554 0.05849834 -0.034684096 0.011156275 0.04111217 -0.07030474 -0.08751568 -0.038810946
0.05804374 -0.02358022 -0.06046825 -0.0038509294 0.096601434 0.09819377 -0.019780906 -8.227542e-05
-0.067114316 -0.08585229 0.10959746 0.009957075 -0.014436278 0.0059689707 0.0013032337 0.0036464361
0.08693669 0.021360517 -0.051134717 0.063907355 -0.018318208 0.06271002 0.08959668 -0.023408726
-0.06471623 0.079019435 0.07572769 0.01854199 0.0012219041 -0.04162053 -0.00442087 -0.0260652
0.029574282 0.06094419 0.03473393 -0.054628454 0.04106786 -0.06027784 0.08654479 0.14152627
0.0555281 0.10601138 0.11322998 -0.057046864 0.057637002 0.044181168 0.05015866 0.11349412
-0.020135004 0.066695265 -0.0364139 0.04011653 -0.055448715 0.102803215 0.03093984 0.057030372
0.038575213 0.02542816 0.09671741 -0.074923374 0.071765214 -0.084161 -0.08198308 0.0040056584
-0.04636334 -0.024056975 0.08085081 -0.06759698 -0.10932097 0.02801722 -0.06916532 -0.028658971
0.037527833 -0.07591434 -0.025327675 0.03896431 0.102885455 -0.04987106 -0.076124854 0.032081444
0.063209645 -0.01736416 0.052208513 0.048269022 0.07690559 -0.052864 0.09741925 0.07608902
0.023032648 -0.0765769 0.02644422 0.02387586 0.09682883 -0.057492446 0.03561636 0.065176606
-0.04412107 -0.020030312 0.12866047 -0.006676258 0.012795479 0.03532173 0.1206152 0.06767095
-0.022528427 0.016280472 0.024187073 0.09720299 -0.08006263 0.041532826 0.11705134 -0.0027235774
0.0125415465 0.031926867 0.09580757 0.022632238 -0.03311318 0.048273467 0.021210248 0.079212524
-0.05193512 0.07943367 -0.012949013 0.10871946 -0.075205125 -0.02039116 0.045079663 -0.085128374
0.009818347 -0.019662427 -0.03428838 -0.057474956 0.013034112 0.10815466 -0.0039284965 -0.021152465
0.011762696 -0.011394693 0.013331555 0.11153012 -0.05956393 0.0730104 0.10550826 -0.036258116

layer3.bias f4 [2]
00000000: 3929 be3c f1e8 87bd
0.023213016 -0.06636227
