package/model/policy.tflite (tflite, 124708 bytes, 6 tensors)

ActorDistributionNetwork/CategoricalProjectionNetwork/logits/BiasAdd/ReadVariableOp f4 [44]
0	0xbb93be45	-0.004508766
1	0xba82de94	-0.0009984546
2	0xbb86067b	-0.004090128
3	0xba1c43cc	-0.000596103
4	0x3b73653c	0.0037139198
5	0xbb6cb7fd	-0.0036120408
6	0xbb8a0bde	-0.0042128405
7	0x3b9bbf7b	0.004753051
8	0xbb773098	-0.0037718173
9	0x3b08d3b6	0.0020878143
10	0x39eadc56	0.0004479612
11	0xbbcdeb0d	-0.0062841238
12	0x3bfeb4d4	0.0077730212
13	0xbad254be	-0.0016046984
14	0xbafc68be	-0.001925729
15	0x3abadb90	0.0014256109
16	0xbacb2276	-0.0015497941
17	0x3b0778bc	0.0020671329
18	0x3ad891b0	0.001652291
19	0xbb82730c	-0.003981
20	0xbbc23238	-0.0059263967
21	0x3b3410ea	0.0027475902
22	0x3b5a1be3	0.0033280782
23	0xbb806c44	-0.0039191563
24	0x3bab9c14	0.005237112
25	0x3ab90b51	0.0014117752
26	0x3b64c076	0.0034904755
27	0x3bc6fe55	0.006072799
28	0xbb635457	-0.0034687722
29	0xbc010338	-0.007874303
30	0x3af69ae4	0.0018814472
31	0xbbd5ac25	-0.0065207654
32	0xbb06edaf	-0.0020588448
33	0x3b9ac793	0.004723498
34	0x3ba87d14	0.0051418636
35	0x39cbc521	0.0003886605
36	0x3b0536ac	0.0020326776
37	0x3b139f1c	0.0022525256
38	0xbb4cb565	-0.003123605
39	0x3afe1d9c	0.0019387486
40	0xbacb092e	-0.0015490407
41	0xbab007c6	-0.0013430051
42	0xbb397f3a	-0.0028304593
43	0xbb599338	-0.0033199321

ActorDistributionNetwork/EncodingNetwork/dense_1/BiasAdd/ReadVariableOp f4 [100]
0	0xbb011448	-0.0019695926
1	0x3bb15f08	0.00541294
2	0xbb0b6ee6	-0.0021275817
3	0xbb14b090	-0.0022688247
4	0x3b314106	0.0027046814
5	0xbb9f2083	-0.0048561706
6	0xba2388b6	-0.0006238328
7	0xba3638fa	-0.0006951239
8	0x3b8f5140	0.0043736994
9	0x3adf2c13	0.0017026685
10	0xbb54b8fa	-0.0032458887
11	0x00000000	0.0
12	0x3b317f6c	0.0027084006
13	0x3a1a6086	0.0005889017
14	0x3a828444	0.0009957631
15	0xbb877cc4	-0.0041347463
16	0x3b77798a	0.0037761652
17	0xbbb0d3c0	-0.0053963363
18	0xb9cc1802	-0.000389278
19	0x3ab8b322	0.0014091472
20	0x3b4c947a	0.0031216429
21	0x3af5d282	0.0018754753
22	0xbb02b3b7	-0.0019943544
23	0x3b277556	0.0025552115
24	0x3bdd00f6	0.0067444993
25	0x3b0065a6	0.0019591837
26	0xbc04749f	-0.008084445
27	0xbadf2744	-0.0017025252
28	0x3ba1ee3f	0.004941731
29	0x00000000	0.0
30	0x3a911df3	0.0011071548
31	0x3b984815	0.0046472647
32	0xbbd028cf	-0.006352521
33	0xbb6eb9ca	-0.0036426657
34	0x3be33e9a	0.006934953
35	0x3b85bf88	0.00408167
36	0x3bd374b1	0.0064531197
37	0xbb3d6c10	-0.0028903522
38	0xbb87253a	-0.004124311
39	0xbb9fef3b	-0.0048808134
40	0xbad7092c	-0.0016405932
41	0x00000000	0.0
42	0x3bb2f6af	0.005461536
43	0x3bb5d76a	0.005549361
44	0xbb3b0993	-0.0028539642
45	0x3aef6520	0.001826439
46	0x3a980969	0.0011599484
47	0xbae3ff72	-0.0017394854
48	0x3b89a75c	0.004200859
49	0xbbce040e	-0.0062871045
50	0x3adf2a73	0.0017026201
51	0xbb67f3e4	-0.0035393173
52	0xba5bbac3	-0.00083820167
53	0x3b3455be	0.0027516927
54	0xbb017fdc	-0.0019760048
55	0xbbabe31b	-0.005245579
56	0xbaa1d5d7	-0.0012347054
57	0x00000000	0.0
58	0x3b4f5d64	0.0031641359
59	0xbba5a626	-0.005055207
60	0x3b186383	0.0023252673
61	0xba3c558e	-0.00071843795
62	0xbbb95492	-0.0056558335
63	0x00000000	0.0
64	0xbb345c11	-0.0027520696
65	0xbbaa8925	-0.005204337
66	0x3b164b60	0.002293311
67	0xbb931ff0	-0.004489891
68	0xba705a80	-0.0009168759
69	0x3b346e46	0.0027531548
70	0xbaf087cd	-0.0018351019
71	0xbb9ac22c	-0.004722854
72	0xbbae6fe1	-0.0053233956
73	0x3b73936f	0.0037166735
74	0xbada91b0	-0.0016675498
75	0xba60ca82	-0.0008575098
76	0xbabd7816	-0.0014455344
77	0x3bc677d6	0.006056766
78	0x3adf13b8	0.0017019426
79	0x3b548eed	0.0032433823
80	0x3b2b824b	0.002617019
81	0xbabb65e4	-0.0014297334
82	0x3b6361d8	0.003469577
83	0xbb28d612	-0.0025762361
84	0x3b864ddf	0.0040986384
85	0xbb4eb738	-0.0031542312
86	0x3ba1e406	0.0049405126
87	0x3b88b458	0.0041718893
88	0x3b4fdd94	0.0031717764
89	0xbbbe5312	-0.0058082426
90	0x3b955780	0.00455755
91	0xbb4e4074	-0.0031471523
92	0x00000000	0.0
93	0xbbe48f51	-0.0069750925
94	0xb96477e0	-0.00021788431
95	0xbb98b118	-0.004659783
96	0x3b9dfafa	0.0048211785
97	0x3a021695	0.00049624714
98	0xba128333	-0.0005589008
99	0x3bb62175	0.0055581876

ActorDistributionNetwork/EncodingNetwork/dense/BiasAdd/ReadVariableOp f4 [200]
0	0xba9e89e0	-0.0012095533
1	0xbb47dc4d	-0.00304963
2	0x3ba1aadf	0.0049336995
3	0xbb819ba5	-0.003955322
4	0x3ac913c8	0.0015340978
5	0x3bab0f35	0.0052203187
6	0x3adf2790	0.001702534
7	0x3b071e24	0.002061733
8	0x3ad7d227	0.0016465829
9	0xba42e3d2	-0.00074344606
10	0xba524b97	-0.0008022128
11	0x3b086827	0.0020814033
12	0xba72b0bd	-0.00092579034
13	0x3b4ec6e9	0.0031551665
14	0x3b958785	0.0045632743
15	0x3b324a5a	0.0027204962
16	0x3b275faf	0.002553921
17	0x3ac3dd46	0.0014943264
18	0xbb87b36e	-0.0041412627
19	0x3a765a9f	0.0009397659
20	0xbaefa340	-0.0018282905
21	0xbb24a459	-0.0025122373
22	0xbbc22a24	-0.0059254337
23	0x3b4bd62b	0.0031102996
24	0xbb506f56	-0.0031804643
25	0xbb6de1f7	-0.0036298016
26	0xbb1ce55e	-0.0023940424
27	0xbbd50169	-0.0065004122
28	0xbb4de717	-0.0031418258
29	0x3b820062	0.003967331
30	0x39f085ac	0.0004587596
31	0xba6baf62	-0.00089906726
32	0xba1c7572	-0.00059684284
33	0xba8c1e6c	-0.0010690219
34	0x3bff63ca	0.007793878
35	0xbb88338c	-0.0041565355
36	0x3b82e13a	0.0039941343
37	0xbb47033a	-0.0030366913
38	0x3b53f46a	0.0032341727
39	0xbad3c154	-0.0016155639
40	0x3ad14902	0.0015967193
41	0xbb1d92a8	-0.0024043713
42	0xbbeab0f6	-0.0071622087
43	0xbb5a915b	-0.0033350799
44	0xbb9b8b5f	-0.004746839
45	0x3a152b2c	0.0005690332
46	0x3a8391e8	0.001003799
47	0x3b7eccb6	0.0038879341
48	0x3b5f5fe2	0.003408425
49	0xbb499e01	-0.0030764344
50	0xba03c0fc	-0.00050260103
51	0x3b559577	0.0032590309
52	0xbbf1f4ec	-0.0073839333
53	0x3b6f677c	0.0036530187
54	0x3aa98dcc	0.0012935936
55	0xbb6d3332	-0.0036193845
56	0xbae401f1	-0.0017395598
57	0x3bb56a41	0.005536348
58	0x3b069fff	0.0020542142
59	0xba8bc674	-0.0010664002
60	0xb8774798	-5.8956066e-05
61	0x3ae1fa98	0.001724082
62	0x3b8591b6	0.004076208
63	0xba99f5ce	-0.0011746229
64	0xbb773064	-0.0037718052
65	0xbbec4016	-0.007209788
66	0x3b2552df	0.0025226397
67	0x3b238166	0.0024948954
68	0xba8d6f46	-0.0010790608
69	0x39e255b6	0.0004316994
70	0xbb2e585d	-0.0026602962
71	0x3ba5cc96	0.005059789
72	0xbb02ea88	-0.0019976217
73	0x3a9f0d39	0.0012134678
74	0x3b618374	0.0034410628
75	0xbae790a6	-0.001766701
76	0xbb322846	-0.002718465
77	0xbb2bff66	-0.0026244759
78	0xbad42e9d	-0.0016188208
79	0x3b4c0153	0.003112872
80	0xbb840c2d	-0.004029772
81	0xbaf8fb62	-0.0018995816
82	0xbafe5c02	-0.0019406083
83	0x3b0623dd	0.0020468154
84	0x3b56b504	0.0032761702
85	0xbb368afc	-0.0027853837
86	0x3ae32205	0.0017328864
87	0x3b23c931	0.0024991746
88	0x3ab145c7	0.0013524824
89	0xbc0d6aed	-0.00863145
90	0xbafe04e6	-0.0019380122
91	0xbb01ac69	-0.0019786602
92	0xbb0b549a	-0.0021260143
93	0x3bcd0d3f	0.0062576826
94	0x3b958f7d	0.0045642243
95	0x3b0de2f9	0.0021650179
96	0x3bb8c950	0.0056392327
97	0xbb54a132	-0.0032444713
98	0xbb7093ff	-0.0036709306
99	0xbbabfa63	-0.0052483543
100	0xbaa33865	-0.001245272
101	0xbb8a5df5	-0.0042226263
102	0x3a1c0f90	0.0005953247
103	0x3b7ccedc	0.0038575446
104	0x3ba1171d	0.0049160854
105	0x39d9ec04	0.0004156531
106	0x3b0bdc37	0.0021340975
107	0xbb414dcf	-0.002949584
108	0xba4677da	-0.000757096
109	0xbbab2255	-0.0052225986
110	0xbbd50924	-0.006501334
111	0x00000000	0.0
112	0xbbce9e90	-0.006305523
113	0x3b4e50a9	0.0031481183
114	0xbb16e934	-0.0023027183
115	0x3a12c484	0.0005598741
116	0xbb60e46f	-0.0034315845
117	0x37aac2e8	2.035634e-05
118	0x3c035a8a	0.008017192
119	0x3b446fd3	0.002997388
120	0x3b26e20c	0.0025464324
121	0x3a28dd9d	0.00064417144
122	0xba883d94	-0.0010394328
123	0xbadf291f	-0.0017025805
124	0x3b279bae	0.002557497
125	0x3b858422	0.0040745893
126	0x3bbd2ea2	0.0057733813
127	0xbbc42fd4	-0.005987147
128	0x3adfa152	0.0017061627
129	0xba82ca47	-0.0009978496
130	0xbb9a85aa	-0.004715641
131	0x3a97f573	0.0011593535
132	0x3ba4431d	0.0050128833
133	0x3b5e04a3	0.0033877275
134	0x3b7638fb	0.0037570584
135	0xbba09562	-0.0049006203
136	0x3ba98bf0	0.0051741526
137	0x3b9461a4	0.004528241
138	0x3adf1cdb	0.0017022149
139	0xbb5355f4	-0.0032247277
140	0x3bcb9cb1	0.0062137474
141	0x3adf16cb	0.0017020343
142	0xbabea080	-0.0014543682
143	0x00000000	0.0
144	0x3bc4a4ee	0.0060011065
145	0x3b451a06	0.0030075326
146	0x3b926242	0.0044672797
147	0xbadf242a	-0.0017024328
148	0x3a75971a	0.0009368524
149	0xb8df7d7d	-0.00010656843
150	0xb991485b	-0.00027710464
151	0xbbbb5699	-0.0057171104
152	0x3ba48886	0.0050211577
153	0xbb5f6a12	-0.0034090322
154	0xbba49ec0	-0.0050238073
155	0xbb6dde38	-0.0036295783
156	0x3a17b57c	0.0005787236
157	0xba870b40	-0.0010303035
158	0xbac94b0c	-0.0015357449
159	0xbbaf42a1	-0.005348519
160	0x3adf24ed	0.0017024555
161	0x3bd740f5	0.006569023
162	0xbb1cad27	-0.0023906918
163	0x3b166703	0.0022949583
164	0xbb843b96	-0.0040354235
165	0xbbd454ec	-0.00647985
166	0xbbed3b64	-0.007239746
167	0x3ade11b8	0.0016942536
168	0xbb1819c2	-0.0023208712
169	0x3b6711cc	0.003525841
170	0xbbd9a42b	-0.006641885
171	0x3b909087	0.0044117603
172	0xbb9f1c72	-0.004855686
173	0x3a1bd128	0.00059439475
174	0x3aaf6781	0.0013382287
175	0x3aeca5b7	0.0018054758
176	0xbba1235e	-0.004917546
177	0x3adf2aab	0.0017026266
178	0xbb069fa4	-0.002054193
179	0xb9b4ff00	-0.00034522265
180	0xba7653dd	-0.0009396652
181	0xbbbfda9c	-0.0058549177
182	0x3a21faf7	0.0006179059
183	0x3b97fab2	0.0046380395
184	0x00000000	0.0
185	0xba94b672	-0.0011345877
186	0xbb546fe3	-0.0032415322
187	0xbb4294dc	-0.0029690778
188	0xb9be045e	-0.00036242878
189	0x3adedf0c	0.0017003729
190	0x3a4bc29f	0.0007772836
191	0x3bbf4e80	0.0058382154
192	0xbbd00785	-0.0063485526
193	0x3aff2172	0.0019464924
194	0x3b6bbb4e	0.0035969797
195	0x3b812e4b	0.003942286
196	0xbb5d4d8d	-0.0033768148
197	0xbb451d03	-0.0030077107
198	0x3a6eed3e	0.00091143313
199	0x3b3007a8	0.0026860032

ActorDistributionNetwork/EncodingNetwork/dense/MatMul f4 [200, 24]
0	0xbe060d5c	-0.13091034
1	0x3db00c4d	0.08596096
2	0x3dd4bcd9	0.10387582
3	0x3d706288	0.058687717
4	0x3d857919	0.06517238
5	0xbd5041dc	-0.05084406
6	0xbdbf03fd	-0.093269326
7	0xbdb60d82	-0.08889295
8	0xbdfd579d	-0.123702265
9	0x3e076355	0.13221486
10	0xbddeef22	-0.10885455
11	0x3e1df672	0.15426043
12	0xbcb29e9b	-0.021804145
13	0x3e1a7099	0.15082015
14	0xbdea5c03	-0.11443331
15	0x3de58303	0.11206629
16	0x3e08a48c	0.1334402
17	0x3d0b5f55	0.034026463
18	0x3df0918e	0.11746512
19	0x3d8c488d	0.068497755
20	0x3c8a2df5	0.016867617
21	0xbd82531c	-0.06363508
22	0xbd85e4f0	-0.06537807
23	0x3e21016a	0.15723196
24	0xbe04ac14	-0.12956268
25	0x3b12f980	0.0022426546
26	0x3d282ef8	0.041060418
27	0xbe005160	-0.12531042
28	0x3c5f3d18	0.013625406
29	0xbd11b667	-0.035574343
30	0x3d99b68a	0.0750552
31	0xbe20ee1f	-0.15715836
32	0xbe128072	-0.1430681
33	0x3d2ecf50	0.042678177
34	0xbddbc748	-0.10731369
35	0xbdb8fca9	-0.09032566
36	0xbd6b4500	-0.05743885
37	0xbe162ff7	-0.14666735
38	0x3d9def06	0.07711606
39	0x3d31a720	0.043372273
40	0x3ce04e66	0.027381133
41	0xbce4b0a2	-0.027916256
42	0x3da5fcb0	0.08104837
43	0x3d20b854	0.03923829
44	0xbe00f35a	-0.12592831
45	0xbd864d00	-0.06557655
46	0x39d3cd8e	0.00040398206
47	0x3d2b0148	0.04174927
48	0x3d997688	0.07493311
49	0xbd4d0cb7	-0.050060954
50	0xbe035618	-0.12825811
51	0x3e0e7140	0.13910389
52	0x3d206fc1	0.039169077
53	0xbe08db41	-0.13364889
54	0x3c1c098c	0.0095237605
55	0x3df6fe84	0.12060264
56	0x3d4d710f	0.05015665
57	0x3dfcd8d5	0.12346045
58	0xbdc0b762	-0.094099775
59	0xbd86d249	-0.065830775
60	0x3d95cb6b	0.073141895
61	0xbdee8d14	-0.11648002
62	0x3e0f4fcd	0.13995285
63	0x3d999b35	0.075003065
64	0x3dc35bdf	0.095390074
65	0xbdb5d419	-0.08878345
66	0x3ddb2e5c	0.10702202
67	0xbd23e052	-0.04000885
68	0x3cf65254	0.030068554
69	0xbe18e4ca	-0.14931026
70	0x3d769cfe	0.060208313
71	0xbc80746c	-0.015680514
72	0x3d77664a	0.060400285
73	0x3d94a4af	0.072579734
74	0x3b6a9dc3	0.00357996
75	0xbc6e5d01	-0.014548541
76	0xbdbf5671	-0.09342659
77	0xbe18917e	-0.14899251
78	0xbdeaec15	-0.1147081
79	0x3ce4df53	0.02793852
80	0x3d13b204	0.03605844
81	0xbdcda90a	-0.10042007
82	0xb9fed26b	-0.0004860343
83	0xbdff3517	-0.12461298
84	0x3d8f3c32	0.06993903
85	0xbe133b93	-0.14378195
86	0xbe1c9bcb	-0.15293805
87	0xbe1988cb	-0.14993589
88	0xbde4f949	-0.1118036
89	0x3d025aef	0.031825002
90	0x3df555da	0.119792655
91	0xbc3d8a9b	-0.011568691
92	0x3dbd1fd9	0.0923459
93	0x3dba737a	0.09104057
94	0xbcc2da10	-0.02378562
95	0xbdf9785c	-0.1218116
96	0xbdadd3a0	-0.0848763
97	0xbda32ed3	-0.079679154
98	0x3dcfcc18	0.1014635
99	0x3dae1889	0.085007735
100	0x3c4dcfba	0.012561733
101	0xbdb048c4	-0.08607629
102	0x3e0364e4	0.12831455
103	0xbcb8a3cc	-0.022539042
104	0xbe270d31	-0.16313626
105	0xbcf68a74	-0.030095316
106	0xbd8df2b9	-0.06931061
107	0xbd5f0076	-0.0544438
108	0xbd5a4192	-0.05328519
109	0x3dea4e32	0.11440696
110	0x3e1bcb16	0.1521419
111	0xbd882e69	-0.06649477
112	0x3bb0030a	0.005371456
113	0xbc8eee24	-0.017447539
114	0x3d217df4	0.03942676
115	0xbd1442e9	-0.036196623
116	0x3e086d30	0.13322902
117	0x3d2e7c1c	0.04259883
118	0x3d441824	0.047874585
119	0x3d90a20a	0.070621565
120	0xbd26f896	-0.040764414
121	0xbd44488e	-0.047920756
122	0xbe015202	-0.1262894
123	0xbd556b84	-0.052104488
124	0x3da241d6	0.079227135
125	0x3d177147	0.036973264
126	0x3dbbf8bf	0.09178304
127	0xbd006984	-0.031350628
128	0xbd95a0b8	-0.07306045
129	0xbde53d42	-0.111933246
130	0x3cd55c2d	0.02604493
131	0x3da76599	0.08173675
132	0x3e10a12e	0.14123985
133	0x3cabd744	0.02097667
134	0xbda582b9	-0.08081574
135	0x3d87c13c	0.066286534
136	0xbdcf1066	-0.1011055
137	0xb9aa4de8	-0.0003248297
138	0x3cb8b6f7	0.022548182
139	0x3c81c031	0.015838714
140	0xbe0b99ee	-0.13632938
141	0xbd491b29	-0.049098168
142	0xbc9bc42a	-0.019014437
143	0x3dd21c22	0.10259272
144	0x3d0da070	0.034576833
145	0x3d5cbba8	0.0538899
146	0xbdeb3050	-0.11483824
147	0xbdc7d998	-0.097582996
148	0xbde4ab3e	-0.11165474
149	0x3e15e4fc	0.14638132
150	0xbdb18abe	-0.08669041
151	0x3cf73e08	0.030180946
152	0xbd857e1c	-0.06518194
153	0x3c903798	0.017604634
154	0xbe0254de	-0.12727687
155	0xbdd3b384	-0.10336974
156	0x3dd44e8f	0.10366546
157	0xbe18e329	-0.14930405
158	0xbd7e761b	-0.062124353
159	0x3dc19cfb	0.0945377
160	0x3b611f1f	0.0034350825
161	0xbd1034a3	-0.03520645
162	0x3ddbf7a1	0.10740591
163	0xbe007310	-0.12543893
164	0x3d1402fc	0.03613566
165	0x3d9d4845	0.076798
166	0xbd948e92	-0.07253756
167	0xbe1c967f	-0.15291785
168	0x3d59feea	0.05322162
169	0x3d2c6d0c	0.042096183
170	0x3da2d506	0.07950787
171	0x3e170239	0.14746942
172	0xbe002e4b	-0.1251766
173	0x3e1261d9	0.14295138
174	0xbe12b831	-0.14328076
175	0xbe217df3	-0.15770702
176	0x3e1e2310	0.15443063
177	0x3d461008	0.048355132
178	0x3c02ed37	0.007991127
179	0xbe1201ff	-0.14258574
180	0x3d34dc1c	0.044155225
181	0xbcf46171	-0.02983162
182	0x3db80189	0.08984668
183	0xbdb8d991	-0.090258725
184	0x3daefca6	0.085442826
185	0xbdefebad	-0.117148735
186	0x3c9edab8	0.019391403
187	0x3db500c6	0.08838038
188	0xbde21132	-0.11038436
189	0xbdb31b7b	-0.08745476
190	0xbd7345b7	-0.059392657
191	0xbdafa9e1	-0.08577324
192	0xbe24bfb0	-0.16088748
193	0x3cf9570e	0.030437019
194	0x3c848215	0.01617531
195	0x3dba0790	0.09083474
196	0x3cb600d0	0.022217184
197	0x3d9a9ec2	0.07549812
198	0x3b91dbb4	0.0044512395
199	0xbd72bc82	-0.059261806
200	0xbe1fde30	-0.15612102
201	0xbe1a67f6	-0.1507872
202	0x3e0004b9	0.12501802
203	0xbd940877	-0.07228177
204	0x3e01f946	0.12692747
205	0x3dbe8bcf	0.0930401
206	0xbe13f751	-0.14449812
207	0x3da3f4a8	0.08005649
208	0xbdb47b6c	-0.08812603
209	0xbddb6493	-0.107125424
210	0x3e09e354	0.13465625
211	0x398f28c0	0.00027305447
212	0x3e0ef6af	0.1396129
213	0x3e0be955	0.13663228
214	0x3ddf38a7	0.108994775
215	0xbc6adb07	-0.014334447
216	0x3d8e4055	0.06945864
217	0x3e1cb6a3	0.15304045
218	0x3dc79654	0.0974547
219	0xbdc03549	-0.09385163
220	0xbd3550e1	-0.044266585
221	0x3de2c011	0.1107179
222	0x3d9ac7d2	0.07557644
223	0x3dccefb7	0.100066595
224	0x39c3d9c1	0.00037355538
225	0x3e1650d0	0.14679265
226	0xbd961f8a	-0.07330234
227	0x3bfa4286	0.0076373247
228	0x3d9cf010	0.07662976
229	0xbd864bc9	-0.065574236
230	0xbde8063a	-0.113293126
231	0x3b3d8058	0.002891561
232	0x3cdfd753	0.027324354
233	0xbda9a996	-0.08284299
234	0xbdb19d23	-0.086725496
235	0x3e25147e	0.16121098
236	0xbce5fb49	-0.028073924
237	0x3de60292	0.11230959
238	0x3d384cdf	0.044995185
239	0x3deb3b5e	0.11485933
240	0xbde4c705	-0.111707725
241	0xbd9a9648	-0.07548195
242	0xbca16f6c	-0.01970645
243	0x3de5eb89	0.112265654
244	0x3df9a7c9	0.121902056
245	0x3da75705	0.081708945
246	0x3aee179e	0.0018164997
247	0xbcc348a3	-0.023838347
248	0xbd929dd7	-0.07159012
249	0xbd1cbce9	-0.038266096
250	0x3e208d3a	0.15678874
251	0xbe1e0f5c	-0.15435547
252	0x3dc503a8	0.09619838
253	0xbcc94fdf	-0.024574218
254	0xbdd2f743	-0.10301068
255	0xbdf665e1	-0.120311506

ActorDistributionNetwork/EncodingNetwork/dense_1/MatMul f4 [100, 200]
0	0x3cf17610	0.029475242
1	0xbdab1c94	-0.0835506
2	0x3cb9308c	0.022606157
3	0xbbc60544	-0.006043108
4	0xbd90518a	-0.07046802
5	0xbd0199ee	-0.03164094
6	0x3b818f40	0.0039538443
7	0x3d8d1b0c	0.068899244
8	0xbde963a8	-0.11395961
9	0xbb1b410d	-0.0023689896
10	0xbd0ca63d	-0.034338225
11	0x3dc2add8	0.09505814
12	0x3dd2092d	0.102556564
13	0xbd34b943	-0.04412199
14	0xbb7c5d4e	-0.0038507762
15	0x3dd9b81c	0.10630819
16	0x3d6abeb6	0.057310782
17	0xbdb0b8cf	-0.086289994
18	0x3d63b316	0.05559071
19	0x3c32ac2e	0.010905309
20	0xbc483a46	-0.012220925
21	0xbd68af07	-0.056807544
22	0xbd5a8e52	-0.053358383
23	0xbd568021	-0.052368287
24	0xbdb48a63	-0.08815458
25	0x3e0b3bd3	0.1359704
26	0x3dadc8a2	0.08485533
27	0xbe05c766	-0.13064346
28	0xbdff6224	-0.12469891
29	0x3d8d5881	0.069016464
30	0x3e0bada5	0.13640459
31	0x3dab7423	0.08371761
32	0x3c45b74e	0.012067629
33	0xbe090d3c	-0.13383955
34	0xbd2af20d	-0.041734744
35	0x3e05f589	0.13081945
36	0xbdb16362	-0.08661534
37	0x3d909497	0.07059591
38	0x3d662d61	0.05619562
39	0xbdd16346	-0.10224013
40	0xbc3e5a3f	-0.011618196
41	0x3dc53f85	0.09631256
42	0xbd9cbc50	-0.07653105
43	0x3d094d97	0.03352126
44	0x3d5fc6fe	0.054633133
45	0x3de30f99	0.110869594
46	0x3b1df330	0.002410125
47	0x3c54aae8	0.0129802
48	0xbdf91ba8	-0.12163478
49	0xbd9eb96a	-0.07750209
50	0x3de03620	0.109478235
51	0x3d47cf64	0.048781767
52	0xbc49d7f5	-0.012319555
53	0xbdd91812	-0.10600294
54	0xbd7a65e1	-0.061132316
55	0x3e047bd9	0.12937869
56	0x3e002540	0.1251421
57	0x3dc7feb7	0.0976538
58	0x3da1a0fa	0.07892032
59	0xbc36a3d2	-0.011147456
60	0x3b780ba0	0.0037848726
61	0x3d9a8f22	0.07546832
62	0xbd6ed85a	-0.058311798
63	0xbe00ea52	-0.12589386
64	0x3cc0650d	0.023485685
65	0x3cd51eb2	0.026015613
66	0x3bc5c2a3	0.0060351654
67	0x3df4bba3	0.11949851
68	0xbdff9b4b	-0.12480792
69	0x3ceea296	0.029130261
70	0xbc064bd5	-0.008196791
71	0x3deac97a	0.1146421
72	0xbce0e125	-0.027451107
73	0xbd6509bd	-0.05591749
74	0xbe0538d8	-0.13009965
75	0x3da8b888	0.082383215
76	0xbda618aa	-0.08110173
77	0x3d847e1c	0.06469366
78	0x3e081fb7	0.13293348
79	0x3be7c820	0.0070734173
80	0x3cef9bea	0.02924915
81	0x3d52f883	0.05150653
82	0xbdf10ee1	-0.11770416
83	0xbc96fa42	-0.01842988
84	0x3da01384	0.07816222
85	0xbe025461	-0.127275
86	0x3e0aadc8	0.13542855
87	0x3dd1498c	0.10219106
88	0xbe0799c6	-0.13242254
89	0x3c9148a6	0.017734837
90	0x3ddef9fe	0.10887526
91	0xbd027606	-0.031850837
92	0x3df0dca9	0.117608376
93	0xbcc6e51f	-0.024279175
94	0x3cc6857b	0.02423357
95	0xbdb33c3c	-0.08751723
96	0xbc392998	-0.011301421
97	0xbba37dcd	-0.004989362
98	0x3cc373cc	0.023858927
99	0xbcfaaa51	-0.030598791
100	0x3c9ed8b2	0.019390438
101	0xbd8523e8	-0.06500989
102	0xbca37100	-0.019951344
103	0x39c21b46	0.00037022884
104	0xbe11c9ca	-0.14237133
105	0xbd2ce57e	-0.04221105
106	0x3d0443cf	0.03229123
107	0x3c2d13b9	0.010563784
108	0x3d101a89	0.035181556
109	0xbd9f7559	-0.07786054
110	0x3d9ce7b4	0.07661381
111	0xbd084be8	-0.033275515
112	0x3dc1a2f8	0.09454912
113	0x3d96d09e	0.07364009
114	0xbdd7b463	-0.10532453
115	0x3df7668b	0.120801054
116	0x3e021cd5	0.12706311
117	0xbd35353d	-0.044240225
118	0xb5f32800	-1.8116552e-06
119	0x3da9cb6b	0.08290752
120	0xbd92b021	-0.071625
121	0x3dde5e34	0.108578116
122	0x3dbe07a6	0.092788026
123	0xbc150f30	-0.009097859
124	0x3d96d6e3	0.07365205
125	0x3d1e6c3a	0.03867743
126	0x3d36e851	0.044655148
127	0xbe03fdf7	-0.12889849
128	0xbe10912e	-0.14117882
129	0x3dc1a093	0.09454455
130	0xbbe735ad	-0.007055959
131	0xb8c18be4	-9.229014e-05
132	0xbe0942ba	-0.1340436
133	0xbdd8c011	-0.10583509
134	0xbda45d3a	-0.08025594
135	0xbe041948	-0.12900269
136	0x3d8cad2b	0.06868967
137	0xbdd02f83	-0.10165312
138	0xbdd2ea50	-0.10298598
139	0xbda2197e	-0.079150185
140	0x3dd7f770	0.10545242
141	0x3a1fd500	0.0006097108
142	0x3d7187da	0.05896745
143	0xbd3e0616	-0.046392523
144	0xbdbec29b	-0.09314462
145	0xbe0bb689	-0.1364385
146	0xbe05ad4b	-0.13054387
147	0x3d9f8f12	0.0779096
148	0x3ddd6907	0.10811048
149	0xbdb11a63	-0.08647611
150	0xbccf39b2	-0.025296066
151	0xbc613f43	-0.013747993
152	0xbd6c6143	-0.057709944
153	0x3af5838a	0.0018731218
154	0xbddfbda5	-0.10924844
155	0xbc37e569	-0.011224129
156	0xbcd52c98	-0.02602224
157	0xbdacec8b	-0.084435545
158	0xbe0b3507	-0.13594447
159	0x3e021097	0.12701641
160	0x3dc44208	0.09582907
161	0x3db9dc99	0.09075279
162	0xbd36e5b5	-0.04465266
163	0xbd29eb43	-0.04148413
164	0x3c2c52a0	0.010517746
165	0xbd420208	-0.04736522
166	0x3d7f4360	0.062320113
167	0x3d9ed683	0.077557586
168	0xbcf01db8	-0.029311046
169	0xbd7c3b45	-0.06157996
170	0xbdae7ee7	-0.085202985
171	0x3d3bf806	0.04589083
172	0xbdd7fd40	-0.105463505
173	0xbe0e3d3f	-0.13890551
174	0xbb8acac0	-0.0042355955
175	0xba0d2ac1	-0.0005385094
176	0xbdc65b8f	-0.09685432
177	0xbd4bb256	-0.04973062
178	0xbcb31cc7	-0.021864308
179	0x3d58b2a6	0.052904747
180	0x3db933b0	0.09043062
181	0xbd50e6d8	-0.0510014
182	0x3cdf9bad	0.027295912
183	0x3dd6d7ea	0.10490401
184	0xbca90b94	-0.020635404
185	0x3d668c54	0.05628617
186	0xbd9a43e3	-0.075324796
187	0x3e0d2b15	0.13785966
188	0x3cd24cc2	0.025671367
189	0x3d612b84	0.05497314
190	0xbddf79bd	-0.109118916
191	0xbcf0a23a	-0.02937423
192	0x3d987b1b	0.074453555
193	0x3d0ffe2d	0.03515451
194	0x3d69cb32	0.057078548
195	0x3d1de145	0.038544912
196	0xbcb062d6	-0.021531504
197	0xbd9d431b	-0.07678815
198	0x3d792a43	0.06083132
199	0x3ca1005f	0.019653497
200	0x3e069bdf	0.13145398
201	0xbc82c4fc	-0.01596307
202	0x3dd5882f	0.104263656
203	0x3dcd782c	0.100326866
204	0xbd02dc61	-0.03194845
205	0x3e0082c2	0.1254988
206	0x3cb569f0	0.022145241
207	0x3cdc392d	0.026882732
208	0xbda42257	-0.08014362
209	0x3e0bb31c	0.13642544
210	0x3e112f5e	0.14178225
211	0x3e0540f4	0.13013059
212	0xbd3d82c1	-0.046267275
213	0x3daac74f	0.08338796
214	0xbe086322	-0.13319066
215	0xbcfd83ef	-0.0309467
216	0x3bdfa027	0.0068245116
217	0xbd9c786e	-0.07640158
218	0xbde36d0c	-0.111047834
219	0x3e0069d4	0.1254037
220	0xbc75c378	-0.015000217
221	0xbdb9b821	-0.09068323
222	0xbdf574b7	-0.11985152
223	0x3d44aa54	0.048014
224	0x3d8d3b2f	0.06896054
225	0x3c2f9b4b	0.010718177
226	0x3a9ca573	0.0011951163
227	0x3d81d802	0.06340028
228	0xbc01f64f	-0.00793226
229	0xbdb68c84	-0.0891352
230	0xbd886a63	-0.06660917
231	0x39bf3fc0	0.00036477856
232	0xbc7e170d	-0.015508425
233	0x3cfefa95	0.031125346
234	0x3cf2a033	0.029617405
235	0xbdb55805	-0.08854679
236	0xbdcb43ab	-0.09925016
237	0x3e015915	0.12631638
238	0xbcf5a8ef	-0.02998778
239	0xbdcef4a2	-0.10105254
240	0x3c0502d2	0.008118348
241	0x3d16caa3	0.036814343
242	0xbdbe55fa	-0.092937425
243	0x3c0db4e8	0.008649088
244	0x3e117f5a	0.14208737
245	0x3e0755f2	0.1321638
246	0xbddf3813	-0.10899367
247	0x3de2c24c	0.110722154
248	0xbd6248c6	-0.055245183
249	0xbcb9650f	-0.022631196
250	0xbd57c673	-0.05267949
251	0xbdc34c4d	-0.095360376
252	0x3daa76bf	0.0832343
253	0xbe089a47	-0.13340102
254	0x3e09a1fb	0.13440697
255	0x3cc1b2bf	0.023644803

ActorDistributionNetwork/CategoricalProjectionNetwork/logits/MatMul f4 [44, 100]
0	0x3cdbdfad	0.026840055
1	0x3ac28aab	0.0014842352
2	0x3d016b92	0.031596728
3	0x3d449cbd	0.04800104
4	0xbd275642	-0.040853746
5	0x3b14e209	0.0022717735
6	0xbc773bc4	-0.015089933
7	0xbb3674bb	-0.0027840573
8	0x3c5f02f5	0.013611545
9	0x3c12fdd2	0.008971648
10	0x3c234680	0.009965539
11	0xbc88f85a	-0.016719986
12	0x3942dbc0	0.00018583145
13	0xbcea59b4	-0.028607227
14	0x3ca2565a	0.019816566
15	0x3cc3b149	0.023888247
16	0x3aa25d60	0.0012387447
17	0xbbe12ac6	-0.006871554
18	0x3d0e6aed	0.03476994
19	0xbd683e01	-0.056699757
20	0xbd5d6183	-0.054048073
21	0x3cc3329c	0.023827843
22	0x3bffacc9	0.00780258
23	0xbc985798	-0.018596455
24	0xbd376df0	-0.04478258
25	0xbd2c3f47	-0.042052533
26	0xbc92b6e5	-0.017909477
27	0x3c94011a	0.018066932
28	0x3c95afd8	0.018272325
29	0xbc633cec	-0.013869505
30	0xbc6ec2d4	-0.014572818
31	0x3d34cedd	0.044142593
32	0x3d0500b7	0.032471385
33	0x3bbaeb96	0.0057043536
34	0xbc5fc490	-0.013657704
35	0xbccd359f	-0.025049983
36	0xbd25c8f6	-0.040474854
37	0xbd295391	-0.04133946
38	0xbbb4ecee	-0.0055214083
39	0x3cf2db95	0.02964572
40	0x3c2567de	0.010095565
41	0xbc2dcc97	-0.01060786
42	0x3d58dfb1	0.052947704
43	0x3cdd751b	0.02703338
44	0x3d82650d	0.0636693
45	0xbce473c8	-0.02788724
46	0xbcaa6f95	-0.02080516
47	0xbcf341dc	-0.02969449
48	0xbcf670a4	-0.030083008
49	0xbc54d40c	-0.012990009
50	0x3d2f4d52	0.042798348
51	0xbd28d57d	-0.041219223
52	0xbc8b6495	-0.017015735
53	0x3c53a8f7	0.012918702
54	0x3c68bdab	0.014205377
55	0x3d0146f5	0.03156181
56	0xbd030c3f	-0.0319941
57	0x3d498d3c	0.049206957
58	0xbc953c1f	-0.018217145
59	0xb9a1b4b3	-0.00030842944
60	0xbd8aa61d	-0.06769965
61	0xbcd2e3c7	-0.025743378
62	0x3d1d2630	0.038366497
63	0x3cbaf7d5	0.022823254
64	0xbcec64fd	-0.028856749
65	0xbc0148dc	-0.007890906
66	0x3cb631ea	0.022240598
67	0x3d235639	0.03987715
68	0x3cd766cb	0.026294133
69	0xbc8dfdc2	-0.017332915
70	0xbc174e2b	-0.009234945
71	0x3cc65896	0.024212163
72	0xba937669	-0.0011250499
73	0xbd4b105a	-0.04957614
74	0xbca25d5e	-0.019819912
75	0xbaf31703	-0.0018546287
76	0xbd01aaf0	-0.03165716
77	0xbd14fc3e	-0.03637337
78	0x3caa7f1f	0.02081257
79	0xbc6eb3b6	-0.014569214
80	0xbc8d8879	-0.01727699
81	0xbcdaa355	-0.02668921
82	0x3ca5c239	0.020234214
83	0xbced1d65	-0.02894468
84	0x3cb4c44b	0.022066256
85	0xbd1b766c	-0.037954733
86	0x3be12976	0.0068713976
87	0x3d392c10	0.045208037
88	0xbbc29858	-0.005938571
89	0xbc31aeba	-0.010844881
90	0xbd777804	-0.06041719
91	0xbc0254fd	-0.007954833
92	0xbcda1ae2	-0.026624147
93	0xbc17d063	-0.009265992
94	0x3b91eed7	0.0044535208
95	0x3c007e78	0.0078426525
96	0x3b7910cc	0.0038004396
97	0xbd7fbb78	-0.062434644
98	0x3d4877b9	0.0489423
99	0x3d207104	0.03917028
100	0x3c7ba26f	0.015358551
101	0xbb98da05	-0.004664662
102	0x3be1e3b5	0.0068936
103	0x3ccba15e	0.02485722
104	0xbb846b34	-0.0040411
105	0xbc0f5ce1	-0.008750171
106	0xbd906d10	-0.07052052
107	0xbcbdd93e	-0.023174878
108	0xbc840d6f	-0.016119687
109	0xbd15b888	-0.036552936
110	0xbd134bee	-0.035961084
111	0xbd3e0ac2	-0.04639698
112	0x3cb78538	0.02240239
113	0xbc8e8094	-0.017395295
114	0xbcdea027	-0.027175976
115	0x3ba7076a	0.0050973194
116	0xbcb3316e	-0.021874156
117	0xbc86bdee	-0.016447987
118	0xbb8a5789	-0.004221861
119	0x3ad7cb12	0.0016463718
120	0xbcf97c14	-0.030454673
121	0x3c8f2103	0.017471796
122	0xbcde7ccc	-0.027159117
123	0x3d65fefe	0.056151383
124	0xbc83e397	-0.016099734
125	0xbc726fae	-0.014797134
126	0x3cd908a3	0.026493376
127	0x3bef084c	0.0072946902
128	0xba9723ae	-0.0011531019
129	0xb9c7bb9c	-0.00038096018
130	0x3c75eb80	0.015009761
131	0xbd040016	-0.032226644
132	0x3bd3bc26	0.006461638
133	0xbc9ec27c	-0.019379847
134	0xbc77efc1	-0.015132845
135	0x3d813cbf	0.063104145
136	0xbd69bc27	-0.0570642
137	0x3cf0c0ab	0.029388746
138	0x3cd34d41	0.025793673
139	0x3c844776	0.016147356
140	0xbd8235f1	-0.06357945
141	0xbd342f88	-0.04399064
142	0xbc53a775	-0.012918343
143	0xbc860f73	-0.016364789
144	0x3baaec56	0.0052161617
145	0x3b51cc4e	0.0032012644
146	0xbc95ef35	-0.01830254
147	0x3c7654e5	0.015034889
148	0xbc131a0f	-0.008978381
149	0xbd08e7f1	-0.03342432
150	0xbd356c14	-0.044292524
151	0x3d7e2019	0.06204233
152	0xbcc25574	-0.023722388
153	0xbd4e36e6	-0.050345324
154	0xbd06ee0d	-0.032941867
155	0xbb83ad03	-0.0040184273
156	0x3cab412c	0.0209051
157	0xbcbde5af	-0.02318081
158	0xbcd7f794	-0.026363172
159	0x3c63dcc8	0.013907619
160	0xbc5a0b54	-0.013308365
161	0x3d3e3b72	0.04644341
162	0x3c7462f5	0.014916171
163	0xbc64a3c6	-0.013955062
164	0x3d627459	0.05528674
165	0xbcb6952a	-0.022287924
166	0x3d2b26e1	0.041785125
167	0x3d42d43a	0.047565676
168	0x3c73b47e	0.014874576
169	0xbce9c692	-0.028537069
170	0xbd2c0b26	-0.04200282
171	0x3cfe1dbe	0.031020042
172	0xbd590d1d	-0.05299102
173	0xbd51c686	-0.051214717
174	0xbc921ff7	-0.017837508
175	0xbd1fccb5	-0.039013583
176	0xbcde7188	-0.027153745
177	0xbcd882a1	-0.026429476
178	0xbca8d417	-0.020608945
179	0x3d097b5f	0.03356492
180	0x3b6bffea	0.003601069
181	0x3c6f50c5	0.014606659
182	0xbd56c9e8	-0.052438647
183	0x3b7ae32c	0.0038282378
184	0xbc607a2f	-0.013701006
185	0x3cb2e7ae	0.02183899
186	0x3ceeeaee	0.029164758
187	0x3cd9c6c7	0.026584042
188	0x3d058456	0.03259691
189	0xbc90dd34	-0.017683603
190	0xbbc35d59	-0.0059620556
191	0xbcf3c20e	-0.029755618
192	0x3d23ecbb	0.040020686
193	0xbcffef52	-0.031242047
194	0xbcaac409	-0.02084543
195	0x3d815e52	0.06316818
196	0xbcb1951b	-0.021677544
197	0xbce0734d	-0.02739873
198	0x3c563d22	0.013076099
199	0x3c871f84	0.01649452
200	0x3cd1ff8f	0.025634555
201	0xbcc494ba	-0.0239967
202	0x3cee5d89	0.029097335
203	0xbc3008c1	-0.010744275
204	0x3b941edf	0.0045202817
205	0xbd09bacd	-0.033625413
206	0x3d2b4ba5	0.041820187
207	0x3d2b7c8b	0.04186682
208	0xbc4d79f6	-0.012541285
209	0x3d37c487	0.044865157
210	0xbbcfebb2	-0.0063452357
211	0x3b90469f	0.00440295
212	0x3cad6934	0.021168329
213	0x3c8acd8a	0.016943712
214	0x3d2ac4f5	0.04169174
215	0xbd25c4fa	-0.040471055
216	0x3cbaaa5a	0.022786308
217	0x3c8c2d72	0.017111514
218	0x3b1c590c	0.0023856787
219	0xbd0f0648	-0.0349181
220	0xbd64cafc	-0.055857643
221	0x3c6f6de5	0.014613603
222	0xbc956283	-0.01823545
223	0xbc87b9ca	-0.016568083
224	0xbd2e9bb9	-0.042628977
225	0xbbd30f6c	-0.0064410474
226	0xbb8321eb	-0.004001846
227	0x3bab2863	0.0052233203
228	0xbce816e5	-0.02833123
229	0xbcbcb883	-0.0230372
230	0xbce05f26	-0.02738912
231	0xbd1f9ff3	-0.0389709
232	0x3c952ebd	0.018210763
233	0x3d0f97f4	0.035057023
234	0x3c0ff2b7	0.008785895
235	0x3d0873f4	0.033313707
236	0x3d019fd9	0.031646583
237	0xbc0134bf	-0.007886111
238	0x3c999aa8	0.018750504
239	0xbbf229a5	-0.0073902183
240	0xbd6c8c05	-0.05775072
241	0xbd467223	-0.048448693
242	0xbc8beeb0	-0.017081589
243	0x3d8e7558	0.06955975
244	0x3d58cd70	0.052930295
245	0x3d2a72af	0.041613277
246	0xbd1be7ea	-0.038062967
247	0x3c06be5f	0.008224099
248	0xbccf1cf9	-0.02528237
249	0xbbc80e3e	-0.0061052134
250	0xbc7e58df	-0.015524118
251	0xbc6d7f69	-0.014495709
252	0x3d646975	0.055764634
253	0xbc84716c	-0.016167365
254	0xbd649ebb	-0.05581544
255	0xbc9ead3b	-0.019369712
