package/model/policy.tflite (tflite, 33756 bytes, 4 tensors)

ActorDistributionNetwork/CategoricalProjectionNetwork/logits/BiasAdd/ReadVariableOp f4 [44]
-0.0009053852 0.00073998846 0.0016812468 -0.0019624112 0.0016300732 -0.00042538042 0.001072959 0.001764432
-0.0008214801 -0.0017640335 -0.0009880171 0.0009401729 -0.0018497547 -0.0015337188 0.0019904543 0.0018990473
-0.0019793687 -0.0019791368 0.0019877679 -0.0012891619 -0.0019170688 0.001999167 0.0009151412 -0.00042644428
-0.0016437455 0.0014971208 -0.001192397 -0.001968572 0.0014776427 0.0015809163 -0.0018012805 -0.00067204796
-0.0018666312 0.00045276922 -0.0017494047 -0.0011415286 0.0019521115 0.0017882328 -0.001993346 -0.000771233
-0.0014299667 -0.0019956839 0.001640958 -0.00046364893
00000000: 5f57 6dba c9fb 413a 485d dc3a cc9b 00bb
00000010: 2ea8 d53a 9805 dfb9 88a2 8c3a 8344 e73a
00000020: 9958 57ba 2437 e7ba 5a80 81ba ef75 763a
00000030: 7873 f2ba 1007 c9ba 4872 023b 74e9 f83a
00000040: 4cb8 01bb 68b4 01bb 3645 023b 18f9 a8ba
00000050: 2846 fbba 7504 033b 16e6 6f3a 6294 dfb9
00000060: f272 d7ba 0a3b c43a 344a 9cba 2803 01bb
00000070: 76ad c13a c036 cf3a f218 ecba 602c 30ba
00000080: c0a9 f4ba a861 ed39 484c e5ba 589f 95ba
00000090: fedd ff3a 2363 ea3a cca2 02bb 922c 4aba
000000a0: b86d bbba 05ca 02bb 6a15 d73a e815 f3b9

ActorDistributionNetwork/EncodingNetwork/dense/BiasAdd/ReadVariableOp f4 [100]
-0.0020008925 0.0019845047 -0.0016240753 -0.001214318 0.00037480058 0.0017222869 0.00035944692 -0.00041731825
-0.0017982612 0.0012950082 -0.0019488779 -0.0016159131 0.00089320424 0.0012773239 -0.0019894466 0.00025942252
0.0019032464 0.001568227 -0.0013269825 0.0019188593 0.0019971393 0.0010649816 -0.0018631965 -0.001998953
-0.0019823266 -0.0019877702 -0.0018478476 -0.0020006415 -0.0019274119 -0.001753107 0.0015740455 -0.0016895782
0.001803798 -0.001989342 -0.00199684 0.0019924277 -0.00079930923 0.0018525831 -0.0013364006 0.0018900887
-0.0018476063 0.0019868389 -0.0009150668 -0.0016562755 0.00034799572 -0.0018271634 0.0013435823 0.0010223739
0.0018445039 -0.0019840063 0.00029455277 0.0017196268 -0.0011722116 -0.0017763537 -0.0009812842 -0.0014553636
-0.0019900254 0.002000058 0.0019016735 0.001958107 0.0003954986 -0.0019724218 -0.0019171862 0.0008572944
-0.0016670743 -0.0019155225 0.0018005364 0.0016072443 0.0019395733 0.0019970508 -0.0015652822 0.0017494148
0.0020005903 0.0019760733 0.0014184138 -0.00088080054 -0.0017842534 -0.0019299395 0.0013291114 -0.001880011
-0.00182568 0.0014799007 0.00030263053 0.0011276131 0.0014692536 -0.0016067981 0.0016176631 0.001668687
0.0019546186 0.00037482916 0.0019081314 -0.0019795173 0.0011838512 -0.0015036226 -0.001993767 -0.0012899826
-0.0014224302 0.0015909225 -0.000369729 -0.00041739433
00000000: 6821 03bb 770e 023b edde d4ba c029 9fba
00000010: e280 c439 5cbe e13a 2674 bc39 82cb dab9
00000020: a2b3 ebba 44bd a93a 7e71 ffba 0ccd d3ba
00000030: ec25 6a3a e16b a73a 6061 02bb 1a03 8839
00000040: 5a76 f93a f78c cd3a 25ee adba 3c82 fb3a
00000050: 70e2 023b da96 8b3a 8036 f4ba de00 03bb
00000060: ece9 01bb 4045 02bb 7a33 f2ba 321d 03bb
00000070: 36a1 fcba 82c8 e5ba 3450 ce3a d674 ddba
00000080: 6b6d ec3a 9f5f 02bb 6add 02bb 6493 023b
00000090: bc88 51ba 60d2 f23a 2a2a afba dabc f73a
000000a0: 612b f2ba a035 023b 18e1 6fba 6217 d9ba
000000b0: 3273 b639 6e7d efba 241b b03a 2d01 863a
000000c0: 48c3 f13a 1a06 02bb 346e 9a39 1a65 e13a
000000d0: e5a4 99ba 8ad4 e8ba 6f9e 80ba e6c1 beba
000000e0: 166b 02bb 6813 033b 9341 f93a 9653 003b
000000f0: ec5a cf39 bf43 01bb 184a fbba 0ebc 603a
00000100: bb81 daba 4512 fbba faff eb3a 2baa d23a
00000110: 4839 fe3a f4e0 023b 282a cdba 9f4c e53a
00000120: 561c 033b 0281 013b 12ea b93a 86e5 66ba
00000130: 9cdd e9ba 06f6 fcba 9435 ae3a b46a f6ba
00000140: a84b efba 3af9 c13a 62aa 9e39 6bcc 933a
00000150: f893 c03a 339b d2ba c407 d43a d8b7 da3a
00000160: 0f19 003b b884 c439 441a fa3a caba 01bb
00000170: 742b 9b3a 3415 c5ba dca9 02bb a214 a9ba
00000180: d670 baba 8086 d03a 30d8 c1b9 b8d5 dab9

ActorDistributionNetwork/EncodingNetwork/dense/MatMul f4 [100, 24]
0.039264586 -0.126105 -0.04368152 0.1936339 0.04160688 -0.05234003 0.06763937 0.03241889
-0.055756904 -0.13322462 -0.012580122 -0.01635904 0.15085946 0.070748776 0.11177425 -0.11331664
0.13398191 0.08763926 -0.2005596 -0.14582574 0.013272288 0.075755134 -0.21457036 -0.082717866
-0.14786911 0.10526588 -0.18634208 -0.05914805 -0.09459422 0.21544716 0.081713036 0.055787858
0.11710596 0.20070763 -0.13189273 0.07365591 0.20443028 0.08915208 0.10808541 -0.0020917142
0.13925858 0.16496919 0.0672112 0.020903975 0.030747496 0.15280767 -0.18280002 0.1485892
0.099485874 -0.2146285 0.09123881 0.1763316 -0.15519117 0.021205083 0.12658492 0.07036805
-0.11600841 -0.19435345 -0.017550362 0.00756727 0.18808511 -0.041958943 0.11185391 -0.17640033
0.028155746 -0.006622461 -0.035541523 -0.20145771 0.18161042 -0.1811448 -0.11090279 -0.037898805
-0.2175791 0.08404204 0.06449767 -0.18833905 0.012510705 0.16609232 0.08222362 -0.14134738
0.044143718 -0.13124421 0.13674986 -0.0023406523 0.1487576 -0.098201744 0.12978488 0.05902802
-0.13283308 -0.10228984 0.1598214 0.04090435 0.12146246 -0.074919656 0.13194378 -0.12198385
-0.12936139 -0.13554324 -0.07752544 0.18354368 0.027051948 -0.019187491 0.10690559 -0.1116904
-0.12179347 -0.054225568 0.21632518 0.019054089 -0.1140768 -0.035621963 -0.059449635 0.078717805
0.21638635 -0.010280255 -0.20032799 0.009105103 -0.13247254 0.15917398 0.075782284 -0.18481314
0.11934396 0.17111392 0.02646216 -0.085828096 0.1979426 -0.018711613 -0.07150956 0.20664902
-0.05125233 0.13184331 -0.04205043 0.042762972 -0.0020356684 0.21046206 -0.100875214 0.18502498
0.052938275 0.12517369 0.19944465 0.21280447 -0.16451019 -0.18039536 0.18605374 0.09128092
-0.021579452 0.14855473 0.19800152 0.16692542 -0.18526663 0.14555332 0.145967 0.029293189
-0.010293436 0.041089356 -0.18252894 0.16856068 0.005477987 -0.21208148 0.020665776 -0.1628509
-0.13364641 -0.18070553 -0.11881427 -0.057887614 0.12536831 -0.04585479 0.018568318 -0.014865125
0.20896682 -0.085857816 0.08102453 -0.025810579 -0.051941596 -0.03537997 -0.1146503 0.13581057
-0.12717105 -0.033723094 -0.08379643 0.0075603155 0.17750436 -0.058519445 0.1964246 0.008195751
-0.127168 -0.094669566 -0.18269944 0.077802755 0.074570954 0.07797123 0.1696218 0.1655245
-0.15640858 0.038578033 -0.12519914 0.005097449 0.02036286 0.1584329 0.18593462 -0.103836104
0.12698174 0.024761574 -0.17607155 0.13590783 -0.1365129 -0.11825488 -0.18073823 0.039692223
-0.19135906 -0.018226037 0.046616863 0.16583654 -0.08940941 -0.0054954393 -0.0046411124 -0.096235596
-0.1295834 -0.079985365 -0.20554647 0.047638264 0.15711457 0.17644791 0.023651704 0.012261146
0.19568938 0.09919272 0.059217885 -0.00016215892 -0.13817309 0.16975376 0.018794099 0.072422594
-0.1351564 -0.15081502 0.16237144 -0.11314338 -0.10544927 0.039144922 0.01566273 -0.20481595
-0.023672197 -0.15530199 0.21653032 0.16429715 0.0056608114 -0.013777662 -0.13929583 -0.11038659
0.17330258 0.12459878 0.046587314 -0.21407594 -0.0036439784 0.18325031 0.022385081 0.06882669
00000000: e7d3 203d ab21 01be 65eb 32bd f747 463e
00000010: fa6b 2a3d 8062 56bd 8386 8a3d acc9 043d
00000020: 5a61 64bd 096c 08be db1c 4ebc 6503 86bc
00000030: e77a 1a3e bce4 903d e6e9 e43d 8e12 e8bd
00000040: 8e32 093e 367c b33d 7f5f 4dbe 5853 15be
00000050: 0374 593c 8225 9b3d 55b8 5bbe fc67 a9bd
00000060: 006b 17be a395 d73d 75d0 3ebe 3a45 72bd
00000070: 9dba c1bd 2e9e 5c3e 2a59 a73d cf81 643d
00000080: 40d5 ef3d 4d86 4d3e e30e 07be e9d8 963d
00000090: 2c56 513e 5e95 b63d e25b dd3d 2415 09bb
000000a0: cd99 0e3e afed 283e 07a6 893d d03e ab3c
000000b0: 2ce2 fb3c 9d79 1c3e ee2f 3bbe c427 183e
000000c0: 40bf cb3d 93c7 5bbe 6adb ba3d 4590 343e
000000d0: 6fea 1ebe 48b6 ad3c 7a9f 013e 201d 903d
000000e0: d195 edbd 9704 47be c7c5 8fbc ddf6 f73b
000000f0: 6299 403e 24dd 2bbd aa13 e53d 4aa2 34be
00000100: e1a6 e63c 3b01 d9bb fd93 11bd ee4a 4ebe
00000110: 15f8 393e 067e 39be 0121 e3bd c73b 1bbd
00000120: 0ecd 5ebe 3c1e ac3d 5b17 843d f4db 40be
00000130: b3f9 4c3c 1b14 2a3e db64 a83d 5ebd 10be
00000140: 0bd0 343d e264 06be 2808 0c3e a165 19bb
00000150: ea53 183e ff1d c9bd 54e6 043e 5dc7 713d
00000160: 6505 08be 567d d1bd 39a8 233e 528b 273d
00000170: 4fc1 f83d 7a6f 99bd 451c 073e abd2 f9bd
00000180: 5077 04be d9cb 0abe a8c5 9ebd e0f2 3b3e
00000190: 0c9c dd3c 162f 9dbc 51f1 da3d f0bd e4bd
000001a0: db6e f9bd a11b 5ebd 5984 5d3e 5217 9c3c
000001b0: 19a1 e9bd 56e8 11bd 7681 73bd cd36 a13d
000001c0: 6294 5d3e 846e 28bc c822 4dbe 922d 153c
000001d0: e2a6 07be 81fe 223e be33 9b3d a83f 3dbe
000001e0: 9b6a f43d 7d38 2f3e 2cc7 d83c a4c6 afbd
000001f0: 77b1 4a3e 1949 99bc 9b73 92bd cd9b 533e
00000200: f7ed 51bd ef01 073e 123d 2cbd 3a28 2f3d
00000210: d968 05bb 5e83 573e aa97 cebd 3077 3d3e
00000220: ced5 583d 882d 003e 383b 4c3e 6ae9 593e
00000230: 5c75 28be 90b9 38be df84 3e3e 7ef1 ba3d
00000240: 64c7 b0bc bb1e 183e e9c0 4a3e 7fee 2a3e
00000250: 89b6 3dbe ee0b 153e 6078 153e 45f8 ef3c
00000260: cda5 28bc 504d 283d dee8 3abe 2c9b 2c3e
00000270: b080 b33b e32b 59be 464b a93c 63c2 26be
00000280: 9bda 08be df0a 39be e554 f3bd 901b 6dbd
00000290: 8d60 003e 3bd2 3bbd 961c 983c da8c 73bc
000002a0: 66fb 553e 39d6 afbd 30f0 a53d b570 d3bc
000002b0: b6c0 54bd 96ea 10bd c7cd eabd ed11 0b3e
000002c0: 2139 02be 3a21 0abd 769d abbd 86bc f73b
000002d0: b4c3 353e 16b2 6fbd 8823 493e 7947 063c
000002e0: 5438 02be 1ee2 c1bd 9015 3bbe 0d57 9f3d
000002f0: a8b8 983d 61af 9f3d 56b1 2d3e 417f 293e
00000300: 9229 20be 0004 1e3d 3434 00be 8008 a73b
00000310: 03d0 a63c 3c3c 223e a565 3e3e 06a8 d4bd
00000320: 8007 023e c9d8 ca3c 1a4c 34be 6c2b 0b3e
00000330: 0aca 0bbe 9d2f f2bd 7113 39be 5094 223d
00000340: a1f3 43be c54e 95bc 53f1 3e3d 0ed1 293e
00000350: 481c b7bd 1613 b4bb 7914 98bb 2b17 c5bd
00000360: 83b1 04be 5ecf a3bd c67a 52be 5720 433d
00000370: a4e2 203e c3ae 343e 38c1 c13c f9e2 483c
00000380: cc62 483e 8e25 cb3d 748e 723d 3409 2ab9
00000390: 3f7d 0dbe eed3 2d3e 15f6 993c 4c52 943d
000003a0: 7066 0abe 416f 1abe b344 263e b7b7 e7bd
000003b0: c9f5 d7bd 6d56 203d 204f 803c 46bb 51be
000003c0: 32ec c1bc 7c07 1fbe 20ba 5d3e 833d 283e
000003d0: 547e b93b b4bb 61bc 91a3 0ebe 5d12 e2bd
000003e0: 3b76 313e a52d ff3d 57d2 3e3d b936 5bbe
000003f0: d0cf 6ebb f8a5 3b3e eb60 b73c 02f5 8c3d

ActorDistributionNetwork/CategoricalProjectionNetwork/logits/MatMul f4 [44, 100]
0.05580412 0.025069702 0.027671479 -0.042315662 0.020135757 0.034049656 -0.048172668 0.04100667
0.023613168 -0.02019777 0.013629302 0.04184497 0.060275454 0.022502443 -0.046192 -0.0335833
0.031941455 0.028215835 -0.03852337 0.0034091661 0.05177675 0.03985495 -0.011912349 -0.012752345
0.0006651953 0.024131408 -0.01195958 0.030956767 -0.039043065 0.029488891 0.002557471 -0.0062901257
-0.04997869 -0.0048360447 -0.0084849475 0.008468837 0.049535226 -0.020825218 -0.012636804 -0.041955788
0.0069253533 -0.03543621 0.033786256 -0.018044036 0.023203319 0.018164767 0.04926498 0.0022550968
-0.03306721 -0.0675541 -0.050863363 0.0143946875 -0.03320644 0.021738146 -0.013611817 0.009615197
0.0041405885 -0.0016899321 0.002274553 -0.03882193 -0.0053708614 0.0008740373 -0.005664464 -0.014637599
0.022932615 0.0047587752 0.07209388 0.033821367 0.02367014 -0.03036753 0.027107552 0.009314414
0.002106805 0.039416205 0.050241824 0.02587837 0.061940536 0.026002493 0.049282912 0.051347014
0.011338204 -0.009903764 0.03759513 0.02208569 -0.029734869 -0.006067273 -0.031192854 0.026843127
-0.03542622 0.014935865 -0.030822974 -0.004821617 -0.017563902 0.02528473 -0.05447561 0.062278036
-0.05832939 -0.0184038 -0.0019105386 0.06129489 0.022228075 -0.024090948 -0.05122839 -0.06286486
0.025545143 -0.009211643 0.016008122 0.016233578 -0.044890232 -0.039151862 -0.0034061563 -0.0077238935
-0.030858742 -0.006166445 0.017342238 0.01653051 0.0050732065 0.043141313 -0.050198786 -0.024226384
0.03640436 0.01475238 0.02617471 0.014777336 0.051961552 0.010149668 -0.035596278 -0.067007355
-0.051955372 0.032378774 0.07295517 0.04783934 -0.0119633805 -0.045743104 0.03837239 0.009674228
0.054122947 -0.0029296107 -0.052658506 -0.04868048 -0.028741851 -0.009691237 0.02866803 -0.03700205
0.0052947323 -0.06511051 -0.0053570066 0.01462576 0.0061724368 0.01955321 -0.062201858 -0.0049885693
-0.015540317 0.028871303 0.035594948 -0.0113820955 0.008897238 0.049575735 0.03726795 0.014320806
-0.034845732 0.005343153 8.7622146e-05 0.04641102 0.029875826 0.0150105795 -0.036842115 0.01612731
0.021917831 0.03283969 -0.017168792 0.06132426 0.001298054 0.007218078 -0.03268999 -0.015485079
0.017382065 0.026134534 -0.0200372 -0.025960503 0.005340257 0.00992149 -0.023875967 0.0055202236
-0.014906086 0.008317159 0.062266044 0.03782502 0.0031650634 -0.00703087 -0.016692232 -0.0028491775
0.049267665 -0.0020558937 -0.0070821852 -0.013725325 -0.03311743 0.026883326 -0.021326357 0.051521268
0.025441011 0.044623394 0.030989533 -0.023083232 -0.018637076 0.072262585 -0.010818305 0.0024918276
0.015922848 0.006053834 0.02242518 0.012898052 -0.0011066631 -0.0010844172 0.031248339 0.029722715
-0.03438487 0.008812261 0.06976762 0.036969464 0.016295394 -0.00978497 -0.043012522 0.021708835
0.053855315 -0.024639301 0.03863394 -0.025636937 0.019901909 -0.055960763 -0.019147078 0.05733025
0.037585586 0.029002368 0.044121847 0.030840091 0.007047203 -0.005207222 -0.035800286 -0.017153965
0.015265269 -0.059562992 0.0016696237 0.051457655 0.015433621 0.05328432 0.010384136 -0.012661008
0.059882466 -0.0024938826 -0.024767077 0.044619787 -0.037011996 0.010661837 -0.0007881695 0.0013871209
00000000: dc92 643d fa5e cd3c 4caf e23c 3053 2dbd
00000010: bef3 a43c a777 0b3d b450 45bd 9cf6 273d
00000020: 6770 c13c cb75 a5bc 704d 5f3c a265 2b3d
00000030: 65e3 763d 0b57 b83c d333 3dbd a48e 09bd
00000040: 0bd5 023d e524 e73c aeca 1dbd 516c 5f3b
00000050: db13 543d f23e 233d 032c 43bc 36ef 50bc
00000060: 8060 2e3a 3baf c53c 1df2 43bc 0c99 fd3c
00000070: 9feb 1fbd b092 f13c 3e9b 273b 661d cebb
00000080: 74b6 4cbd af77 9ebb 7304 0bbc e0c0 0a3c
00000090: 73e5 4a3d a699 aabc 990a 4fbc d5d9 2bbd
000000a0: 13ee e23b 8f25 11bd 7563 0a3d 16d1 93bc
000000b0: e314 be3c 47ce 943c 13ca 493d 3fca 133b
000000c0: 7c71 07bd ce59 8abd 1a56 50bd b2d7 6b3c
000000d0: 7a03 08bd 3214 b23c 1904 5fbc 0f89 1d3c
000000e0: c6ad 873b b680 ddba ab10 153b be03 1fbd
000000f0: 0dfe afbb a61f 653a f89c b9bb 8ad2 6fbc
00000100: 2edd bb3c 80ef 9b3b f5a5 933d 4688 0a3d
00000110: e2e7 c13c 54c5 f8bc a810 de3c 7c9b 183c
00000120: 5312 0a3b e372 213d 5fca 4d3d e0fe d33c
00000130: 5cb5 7d3d 2e03 d53c e1dc 493d 3f51 523d
00000140: e0c3 393c 6643 22bc 5afd 193d 0ded b43c
00000150: 8a96 f3bc facf c6bb 2888 ffbc 1ee6 db3c
00000160: 161b 11bd 8fb5 743c 7680 fcbc a8fe 9dbb
00000170: 2ce2 8fbc ec21 cf3c d121 5fbd 4117 7f3d
00000180: ccea 6ebd 91c3 96bc 0a6b faba 5a10 7b3d
00000190: a717 b63c 615a c5bc dcd4 51bd 4bbf 80bd
000001a0: 0c44 d13c 6eec 16bc 7723 833c 48fc 843c
000001b0: d2de 37bd b45d 20bd d239 5fbb b718 fdbb
000001c0: 79cb fcbc e40f cabb 4f11 8e3c fe6a 873c
000001d0: 243d a63b f2b4 303d 3e9d 4dbd 6976 c6bc
000001e0: bd1c 153d f7b3 713c 586c d63c a41c 723c
000001f0: a3d5 543d cb4a 263c 67cd 11bd 273b 89bd
00000200: 28cf 54bd 9b9f 043d 8569 953d 2ff3 433d
00000210: 0e02 44bc 1f5d 3bbd 5e2c 1d3d a780 1e3c
00000220: 06b0 5d3d b6fe 3fbb 72b0 57bd 2f65 47bd
00000230: 0874 ebbc fec7 1ebc 37d9 ea3c 768f 17bd
00000240: 6f7f ad3b a958 85bd d489 afbb e2a0 6f3c
00000250: 2742 ca3b 0e2e a03c 60c7 7ebd 2777 a3bb
00000260: d09c 7ebc 8383 ec3c 02cc 113d f87b 3abc
00000270: b9c5 113c ed0f 4b3d 47a6 183d d0a1 6a3c
00000280: 66ba 0ebd 9e15 af3b c8c1 b738 7b19 3e3d
00000290: 26be f43c efee 753c c2e7 16bd 6c1d 843c
000002a0: 068d b33c e982 063d 91a5 8cbc 262f 7b3d
000002b0: 7723 aa3a a085 ec3b f0e5 05bd 21b5 7dbc
000002c0: d564 8e3c 1718 d63c 0e25 a4bc 1fab d4bc
000002d0: 53fd ae3b bf8d 223c 8897 c3bc fee2 b43b
000002e0: a838 74bc b144 083c ae0a 7f3d 68ee 1a3d
000002f0: f46c 4f3b 3663 e6bb 26be 88bc 44b9 3abb
00000300: e4cc 493d 2cbc 06bb ad11 e8bb 30e0 60bc
00000310: 24a6 07bd 6c3a dc3c 9db4 aebc f707 533d
00000320: ab69 d03c 05c7 363d c3dd fd3c 0c19 bdbc
00000330: c8ac 98bc 68fe 933d 433f 31bc ee4d 233b
00000340: a270 823c 3e5f c63b 03b5 b73c 5a52 533c
00000350: 740d 91ba 0123 8eba 84fc ff3c 0d7d f33c
00000360: 26d7 0cbd 4d61 103c 53e2 8e3d 4b6d 173d
00000370: eb7d 853c 2451 20bc e62d 30bd bad6 b13c
00000380: 6497 5c3d 5cd8 c9bc 9f3e 1e3d 8e04 d2bc
00000390: 5409 a33c 1d37 65bd 55da 9cbc 20d3 6a3d
000003a0: 58f3 193d 6096 ed3c 1cb9 343d 5ca4 fc3c
000003b0: 39ec e63b 58a1 aabb 52a3 12bd 7986 8cbc
000003c0: 2e1b 7a3c 53f8 73bd 46d7 da3a 43c5 523d
000003d0: 4cdd 7c3c a940 5a3d 3922 2a3c 1e70 4fbc
000003e0: 5147 753d 6870 23bb 53e4 cabc 3dc3 363d
000003f0: e499 17bd fcae 2e3c 299d 4eba 0ed0 b53a
