package/model/policy.tflite (tflite, 124708 bytes, 6 tensors)

ActorDistributionNetwork/CategoricalProjectionNetwork/logits/BiasAdd/ReadVariableOp f4 [44]
-0.0017229891 0.0018904612 -0.0019710008 0.0015562472 0.0015186269 0.0013334575 -0.0009139612 -0.0016222869
-0.0013518678 -0.001182958 0.0014656606 0.0018443263 -0.0019748304 -0.0005342503 -0.0019841697 0.001977771
0.0019995784 -0.0012308762 -0.0005668388 -0.0019370759 -0.0019161622 0.0014946547 0.0018376494 -0.0018481167
0.00032660516 -0.0015663393 0.0019824668 0.0017819991 0.00079226354 0.00063265534 0.0019924012 -0.001882242
-0.001964837 -0.0014847291 0.001976681 0.0008482393 -0.0014644583 -0.0019605267 0.00066422235 0.0010466106
0.0019956524 -0.00053002883 -0.0017618136 -0.0019247739
00000000: ecd5 e1ba 5ac9 f73a e82b 01bb fefa cb3a
00000010: aa0c c73a 69c7 ae3a e696 6fba eaa2 d4ba
00000020: 2831 b1ba 7c0d 9bba 691b c03a 52bd f13a
00000030: 286c 01bb ee0c 0cba d808 02bb 7e9d 013b
00000040: 5c0b 033b 5a55 a1ba e897 14ba 7be5 fdba
00000050: bc27 fbba 4ae8 c33a 48dd f03a 823c f2ba
00000060: 343c ab39 a04d cdba 46ec 013b f891 e93a
00000070: e8af 4f3a c8d8 253a f292 023b 90b5 f6ba
00000080: 7fc4 00bb 3e9b c2ba 348b 013b 605c 5e3a
00000090: 11f3 bfba 2e7c 00bb 351f 2e3a 6d2e 893a
000000a0: 7ec9 023b a2f1 0aba a8ec e6ba b248 fcba

ActorDistributionNetwork/EncodingNetwork/dense_1/BiasAdd/ReadVariableOp f4 [100]
0.0 0.0 -0.0008462615 -0.0016032759 -0.001964273 0.0 -0.00055552647 -0.001671497
0.0 -0.0016700347 0.001991401 0.0014489888 -0.0020011584 -0.0019781704 -0.000835526 0.0019498423
0.0010814797 0.0012810417 0.0017155795 -0.001748122 0.0011302866 0.00027465122 -0.0015907893 -0.0016611558
0.001975759 -0.0016008213 0.00055824814 0.0 0.001987835 -0.0015752533 0.0011898621 -0.0019836747
-0.0015403985 0.0011255171 -0.001672297 0.0019137829 -0.0019993058 0.0015451708 0.0018739977 -0.00036412146
-0.0019923835 0.00037861022 -0.00040277577 0.0017835959 0.0016698847 0.000923898 0.0019930555 0.0016762423
0.0 0.0019894606 -0.0014309057 0.00042505452 0.0007973872 0.0012665379 -0.0016700365 -0.0020009128
-0.0016700333 -0.0019946988 -0.0007819333 -0.0019983891 0.00074412563 0.0 0.0019353547 0.0010395363
0.0 0.0008264594 -0.0017325911 0.0006972945 -0.0012106624 -0.001468031 0.0016698422 -0.00050771254
-0.0010109813 -0.0014473087 0.0013634962 -0.0019584617 0.0019999144 -0.0019465527 -0.0016699333 0.00040712435
0.001789351 0.0019120553 0.0020003258 0.0017968137 -0.0019751107 0.0008946689 0.0016694583 -0.0019400364
0.0019307062 -0.0019578063 0.0016697289 -0.0017423508 -0.0020013065 -0.0016843484 0.0017506238 -0.0006353215
-0.0016695838 0.0019282444 -0.0005053559 0.0018102338
00000000: 0000 0000 0000 0000 a6d7 5dba 0325 d2ba
00000010: 08bb 00bb 0000 0000 c0a0 11ba 2216 dbba
00000020: 0000 0000 11e5 daba 2a82 023b ffeb bd3a
00000030: de25 03bb 31a4 01bb 3307 5bba da91 ff3a
00000040: 70c0 8d3a a0e8 a73a 4cdd e03a 3e21 e5ba
00000050: 2026 943a 10ff 8f39 0882 d0ba 24bb d9ba
00000060: bc7b 013b a6d2 d1ba 6657 123a 0000 0000
00000070: 5646 023b bb78 ceba 26f5 9b3a 8a00 02bb
00000080: 32e7 c9ba 1686 933a fa30 dbba e6d7 fa3a
00000090: c906 03bb 5487 ca3a eea0 f53a 8ee7 beb9
000000a0: a692 02bb 3480 c639 a62b d3b9 8cc7 e93a
000000b0: 08e0 da3a bf31 723a ec9d 023b 5cb5 db3a
000000c0: 0000 0000 9c61 023b 3a8d bbba dad9 de39
000000d0: c007 513a f601 a63a 20e5 daba bf21 03bb
000000e0: 05e5 daba 7eb9 02bb a8fa 4cba 68f7 02bb
000000f0: 6d11 433a 0000 0000 baab fd3a 0d41 883a
00000100: 0000 0000 c0a6 583a 1c18 e3ba a4ca 363a
00000110: 17af 9eba f26a c0ba 9bde da3a 0318 05ba
00000120: e782 84ba 9fb3 bdba 57b7 b23a 8959 00bb
00000130: ff10 033b 7823 ffba aae1 daba 4e73 d539
00000140: a888 ea3a ee9d fa3a e617 033b 1083 eb3a
00000150: dc70 01bb 3788 6a3a bad1 da3a d248 feba
00000160: c00f fd3a 8a4e 00bb ceda da3a 975f e4ba
00000170: 5a28 03bb 5bc5 dcba 3075 e53a b48b 26ba
00000180: f0d5 daba 25bd fc3a dc79 04ba 5e45 ed3a

ActorDistributionNetwork/EncodingNetwork/dense/BiasAdd/ReadVariableOp f4 [200]
-0.001701839 -0.00045474072 0.0006588029 0.0018501801 0.0017078354 0.0 0.0011435986 -0.0020001729
0.001851042 -0.0019516589 -0.0018462804 0.0 0.0019968096 -0.0019064608 -0.00031818124 0.0012391025
-0.0020002222 0.0006734369 0.0010958235 -0.0007437155 -0.0018984674 0.0019124077 -0.0018421295 0.0
0.0016929675 -0.0017456029 -0.0018100356 0.0012241981 -0.0018940393 0.0018214707 0.0013608541 -0.0005207106
-0.0016676964 0.0014933536 0.0017064328 -0.00053899596 0.0010697658 0.0017994529 -0.0016699628 -0.0002903918
-0.0017368456 0.0012153097 -0.00066281925 -0.0014217652 0.00042447116 -0.0010795993 -0.00032488693 -0.001403126
0.0016086216 -0.001670006 0.0019865679 -0.001368929 -0.0005420359 -0.0014487397 -0.0003067929 -0.0008994002
-0.0020005438 0.0016634105 -0.001403732 0.0009095088 0.0014256616 0.0017665431 0.001540593 -0.0017343019
0.0017599722 0.0019971102 0.0016242851 -0.0014487042 0.0016504398 0.00050244405 0.0018404473 0.0016639116
-0.0019048217 0.0018416889 -0.0016696381 -0.0005115154 -0.0017912601 0.0019131489 0.001896268 -0.0017184414
0.0016699515 -0.0017891692 -0.00036095857 0.0010463379 0.00089497445 0.0019830079 0.0020012339 0.00040611526
-0.0015725524 -0.0009271653 0.0015635329 -0.00048143603 0.0019804565 0.0017671143 -0.0010389015 -0.0019676874
-0.0019430683 0.00061016245 0.001931789 -0.0016836431 -0.0015437158 -0.0020013172 0.001297671 0.001912385
0.0 0.001818175 -0.0016530966 -0.0018777498 0.0019495677 0.0012979048 0.0016697417 -0.0018457778
-0.0019911127 0.0017660516 0.0020004134 0.0020012928 -0.00042489357 -0.001992484 0.0017972535 -0.0016693615
0.0019453877 0.0017887346 -0.0018567857 0.0016698705 0.0018526419 -0.0019842014 -0.00040765677 -0.001955581
-0.0017573897 0.0012297905 0.00029409322 -0.0019777245 -0.001984866 0.0016317456 0.0018871704 0.00086112536
-0.00077823934 0.001878066 -0.0018207309 0.0 0.0 -0.0016700267 0.0019986508 0.0018774956
-0.0018857189 0.0018934153 0.0018477696 -0.0017955574 -0.0019855623 0.0017402424 -0.00033118407 0.0019388015
0.0019846521 0.0015458141 0.0017454692 0.0012169407 -0.002001014 0.002001253 0.0017325872 -0.0005039042
0.0 -0.0015885164 -0.000590113 0.00193953 -0.0014282068 0.00046317815 0.001998121 0.0018955836
0.0009770672 0.0020013102 -0.0013348411 0.0017824956 -0.0019275764 -0.0015413391 0.0007160863 -0.0015771941
0.00045255816 0.0019096262 0.00095949287 -0.0018752554 -0.0007440605 0.0 -0.0017640416 0.0005622768
-0.0019383391 0.0017670442 0.002000344 0.001773993 0.0010719389 0.0015677726 0.0011614494 -0.0015655579
0.0014211452 0.00027977437 0.00085216336 -0.0018695873 0.0018565396 -0.0013411975 0.0 -0.0016699701
00000000: 3e10 dfba 446a eeb9 84b3 2c3a be81 f23a
00000010: 72d9 df3a 0000 0000 cde4 953a 5515 03bb
00000020: aa9e f23a cece ffba e4fe f1ba 0000 0000
00000030: e8dc 023b 36e2 f9ba 90d1 a6b9 6169 a23a
00000040: 2916 03bb 9689 303a bca1 8f3a e7f5 42ba
00000050: ffd5 f8ba c1a9 fa3a 9c73 f1ba 0000 0000
00000060: 90e6 dd3a b7cc e4ba b73e edba 4675 a03a
00000070: 6a41 f8ba 6abe ee3a b05e b23a 4c80 08ba
00000080: 9b96 daba a2bc c33a 62aa df3a 684b 0dba
00000090: 6237 8c3a 9fdb eb3a a7e2 daba ba3f 98b9
000000a0: dea6 e3ba 074b 9f3a 0cc1 2dba 865a baba
000000b0: 8e8b de39 5781 8dba 9655 aab9 19e9 b7ba
000000c0: 62d8 d23a 1ae4 daba 1431 023b a36d b3ba
000000d0: 6a17 0eba a3e3 bdba 0cd9 a0b9 bac5 6bba
000000e0: 8e1b 03bb cb06 da3a 6efd b7ba 1a6c 6e3a
000000f0: 44dd ba3a 5a8b e73a b9ed c93a 8451 e3ba
00000100: deae e63a f3e1 023b f7e5 d43a 72e2 bdba
00000110: 9253 d83a 73b6 033a 2a3b f13a 9c17 da3a
00000120: 36ab f9ba d364 f13a c2d7 daba 3817 06ba
00000130: b7c8 eaba a0c2 fa3a 328c f83a 533d e1ba
00000140: 46e2 da3a 8e82 eaba 0a3f bdb9 4625 893a
00000150: b89c 6a3a 5af5 013b 2227 033b deeb d439
00000160: 1a1e ceba 030d 73ba 75ef cc3a 4069 fcb9
00000170: 8cca 013b 849e e73a c02b 88ba 51f4 00bb
00000180: 8eae feba 4ff3 1f3a 1534 fd3a b0ad dcba
00000190: 8256 caba 8828 03bb 9d16 aa3a fea8 fa3a
000001a0: 0000 0000 d44f ee3a b8ac d8ba d41e f6ba
000001b0: a388 ff3a 751e aa3a 3cdb da3a 07ee f1ba
000001c0: 547d 02bb dc7a e73a 5e19 033b 1f28 033b
000001d0: 40c4 deb9 5694 02bb d291 eb3a 7ace daba
000001e0: 61fc fe3a f973 ea3a 645f f3ba 8edf da3a
000001f0: 59d4 f23a 6009 02bb c4ba d5b9 3429 00bb
00000200: 3758 e6ba ec30 a13a 8630 9a39 b69c 01bb
00000210: 8714 02bb 4ce0 d53a ee5a f73a 25bd 613a
00000220: c202 4cba 7029 f63a 97a5 eeba 0000 0000
00000230: 0000 0000 cce4 daba ccfb 023b 4c16 f63a
00000240: 3a2a f7ba 7a2c f83a dc30 f23a e958 ebba
00000250: 3520 02bb d818 e43a c6a2 adb9 621f fe3a
00000260: f010 023b ea9c ca3a 3ac8 e43a c181 9f3a
00000270: 7223 03bb 7427 033b fb17 e33a 7018 04ba
00000280: 0000 0000 c435 d0ba d0b1 1aba d437 fe3a
00000290: ab32 bbba b8d6 f239 e8f2 023b 3b75 f83a
000002a0: ef10 803a 6a28 033b d6f5 aeba a1a2 e93a
000002b0: bba6 fcba c206 caba bdb7 3b3a dab9 ceba
000002c0: 5445 ed39 6c4c fa3a 7a86 7b3a 21cb f5ba
000002d0: 0e0d 43ba 0000 0000 6a37 e7ba c265 133a
000002e0: de0f feba 2a9c e73a 3418 033b 5485 e83a
000002f0: 4d80 8c3a b87d cd3a c63b 983a 6833 cdba
00000300: b845 ba3a aeae 9239 b763 5f3a f10c f5ba
00000310: 2257 f33a 1fcb afba 0000 0000 e6e2 daba

ActorDistributionNetwork/EncodingNetwork/dense/MatMul f4 [200, 24]
-0.15894555 -0.0136734545 -0.15707658 -0.13102433 0.10949187 -0.095038034 0.15924922 0.034712024
0.07406892 -0.1512129 -0.01446582 -0.09863586 0.059905916 0.09696804 0.088915855 -0.11364213
-0.12833369 0.14854826 0.009046969 0.12968518 -0.12897827 0.061720736 -0.033897143 -0.13367368
0.12803404 0.16215517 0.075889826 -0.11409382 -0.104025416 -0.15861502 -0.03515696 -0.076936245
-0.015856078 0.0666158 -0.036946677 0.15132897 0.1391738 -0.007173433 0.04741282 0.09515254
0.12656704 -0.08410768 -0.10395159 -0.023286741 0.0010590577 -0.10622192 0.018962797 -0.04846452
-0.05635668 0.00057824387 -0.08381241 0.081272386 -0.13429692 0.007640091 0.07197074 -0.070419796
-0.08492661 0.013906023 0.07853 0.0045504165 -0.11002522 0.15718296 0.10305113 0.0922392
0.0206907 -0.06742264 -0.09004957 -0.0723203 0.03077763 -0.018928912 0.06855325 0.08368321
-0.10856497 0.000165086 -0.09764621 -0.098982625 0.051804412 -0.11059525 -0.00012461832 -0.0410915
-0.1039444 0.071899615 0.03379877 0.15845758 -0.12142013 -0.09606855 0.055227164 -0.078585856
-0.027078064 0.10697158 0.11583249 0.14106058 0.002574799 0.11330584 0.06996627 0.08228494
-0.0067535294 0.09255852 -0.0005033861 0.06274215 0.1257536 -0.034830123 0.10953924 -0.15776049
-0.14794514 -0.12454718 -0.088842764 0.03218726 0.12818582 -0.11651303 0.039299358 0.029013423
-0.15474793 0.011283186 -0.15527333 0.043106496 -0.07523332 0.015152678 0.037231695 0.035091758
0.06625016 -0.0903515 -0.1103134 0.05423008 -0.113741696 -0.1085551 0.15790004 -0.10859084
0.022254735 0.09193289 -0.11756386 0.07123771 -0.081754684 0.050786763 0.08255319 -0.1149676
-0.13636522 0.018704697 -0.10367915 -0.04628791 -0.10451665 -0.07481608 -0.0044778585 0.10056722
-0.08857519 0.15039667 -0.11554501 -0.106496535 0.13439801 0.14231472 0.070805915 0.14849356
-0.15489608 0.15799949 0.14040196 -0.062635005 0.11739281 -0.08323591 0.1307679 -0.11011424
-0.06978162 0.034028426 0.15940171 -0.119715706 -0.04241495 0.14319217 -0.013775756 -0.09709274
-0.13239662 0.16271633 -0.10056309 0.0053186333 0.035849385 -0.09269681 0.098511875 -0.15767874
0.07408444 0.036675885 -0.12781101 0.12133658 0.07616354 -0.012598264 0.016402088 -0.09917579
0.025941797 0.13476187 0.0065953326 0.13311838 0.047041558 -0.13430037 -0.08711187 0.14248307
-0.07293101 0.0072656996 0.13538207 -0.08154064 -0.052941043 -0.04523987 0.03534454 0.14938624
-0.053115904 -0.02051526 0.10463522 0.012386184 -0.04168609 -0.08303962 -0.07670163 -0.06772357
-0.057348035 -0.039273165 -0.013566487 0.12208344 0.1584406 0.0037702662 0.12518987 -0.13980067
0.15256521 0.14606635 -0.13300651 0.105279446 -0.11056696 0.10942052 -0.029774822 -0.07406068
-0.022588642 -0.09094437 -0.05394992 0.03424566 0.10683069 0.012015858 -0.13075612 0.029584832
-0.06892828 -0.04469832 0.086854845 0.09509342 0.12998283 -0.12067272 0.016252842 0.03808514
-0.14610228 -0.009606004 -0.13602565 -0.10699405 0.07709281 0.030750949 0.11554826 0.08228947
0.04735691 0.12193947 -0.009957716 0.014486246 -0.031482495 -0.13503121 -0.0747644 -0.075539365
00000000: 9fc2 22be a006 60bc afd8 20be 3e2b 06be
00000010: 463d e03d 4da3 c2bd 3a12 233e 322e 0e3d
00000020: 72b1 973d 8ed7 1abe 0c02 6dbc 9901 cabd
00000030: e85f 753d 2e97 c63d 8419 b63d 34bd e8bd
00000040: e869 03be 091d 183e bd39 143c 31cc 043e
00000050: e112 04be e2ce 7c3d bbd7 0abd c1e1 08be
00000060: 5b1b 033e 010c 263e 206c 9b3d 05aa e9bd
00000070: 470b d5bd fa6b 22be bf00 10bd c090 9dbd
00000080: 9be4 81bc dd6d 883d 6655 17bd fbf5 1a3e
00000090: 9483 0e3e 1e0f ebbb f233 423d 56df c23d
000000a0: ca9a 013e a640 acbd 92e4 d4bd d6c3 bebc
000000b0: 14d0 8a3a e18a d9bd de57 9b3c bc82 46bd
000000c0: 43d6 66bd 4a95 173a d7a5 abbd 2372 a63d
000000d0: 2285 09be ba59 fa3b 6565 933d 4138 90bd
000000e0: 01ee adbd 17d6 633c 56d4 a03d a91b 953b
000000f0: e754 e1bd 92f4 203e 790c d33d e8e7 bc3d
00000100: 8b7f a93c e214 8abd e96b b8bd aa1c 94bd
00000110: 5e21 fc3c ce10 9bbc a565 8c3d 1a62 ab3d
00000120: 5057 debd f01a 2d39 bcfa c7bd 67b7 cabd
00000130: dd30 543d c37f e2bd faab 02b9 904f 28bd
00000140: cde0 d4bd 1b40 933d 9470 0a3d b442 223e
00000150: 1eab f8bd 97bf c4bd e135 623d 9ff1 a0bd
00000160: d1d2 ddbc ea13 db3d 9639 ed3d 2f72 103e
00000170: f5bd 283b e40c e83d 7a4a 8f3d 0285 a83d
00000180: b64c ddbb 528f bd3d abf5 03ba f57e 803d
00000190: 8dc5 003e 08aa 0ebd 1c56 e03d f78b 21be
000001a0: ee7e 17be 9812 ffbd 32f3 b5bd cad6 033d
000001b0: 2543 033e 629e eebd 5df8 203d 8fad ed3c
000001c0: 3e76 1ebe 1ddd 383c f9ff 1ebe 7090 303d
000001d0: ed13 9abd f042 783c 4380 183d 60bc 0f3d
000001e0: 2aae 873d 350a b9bd feeb e1bd 5c20 5e3d
000001f0: 68f1 e8bd 2352 debd 8cb0 213e e064 debd
00000200: 904f b63c 5047 bc3d 52c5 f0bd 14e5 913d
00000210: 006f a7bd c805 503d a611 a93d 2274 ebbd
00000220: 53a3 0bbe 983a 993c bc55 d4bd 6498 3dbd
00000230: d30c d6bd 2c39 99bd 00bb 92bb 30f6 cd3d
00000240: e966 b5bd 9601 1a3e dda2 ecbd db1a dabd
00000250: a29f 093e f3ba 113e b102 913d b20e 183e
00000260: 149d 1ebe 9eca 213e 88c5 0f3e c846 80bd
00000270: a46b f03d 9777 aabd 05e8 053e 9383 e1bd
00000280: aae9 8ebd 6461 0b3d 343a 233e 822d f5bd
00000290: 4cbb 2dbd f8a0 123e b5b3 61bc 8fd8 c6bd
000002a0: fb92 07be 1c9f 263e 05f4 cdbd ee47 ae3b
000002b0: ced6 123d d3d7 bdbd 98c0 c93d 8976 21be
000002c0: 95b9 973d 7439 163d e4e0 02be 507f f83d
000002d0: a1fb 9b3d f368 4ebc ac5d 863c ad1c cbbd
000002e0: e483 d43c 04ff 093e a91d d83b 2f50 083e
000002f0: a6ae 403d 0986 09be b567 b2bd 15e7 113e
00000300: da5c 95bd 1b15 ee3b 99a1 0a3e c7fe a6bd
00000310: b5d8 58bd 714d 39bd 70c5 103d b5f8 183e
00000320: 1090 59bd 9e0f a8bc fd4a d63d 6cef 4a3c
00000330: 09bf 2abd ad10 aabd bf15 9dbd a8b2 8abd
00000340: c6e5 6abd e6dc 20bd f845 5ebc e206 fa3d
00000350: 413e 223e 9216 773b c631 003e e827 0fbe
00000360: 0e3a 1c3e 6b92 153e dc32 08be c09c d73d
00000370: ee70 e2bd de17 e03d 54ea f3bc 20ad 97bd
00000380: d10b b9bc 0b41 babd 97fa 5cbd 2d45 0c3d
00000390: 0cca da3d 29de 443c efe4 05be e45b f23c
000003a0: 452a 8dbd 9615 37bd f4e0 b13d 57c0 c23d
000003b0: 381a 053e 4223 f7bd ae24 853c 2aff 1b3d
000003c0: d69b 15be 8062 1dbc 4f4a 0bbe b21f dbbd
000003d0: d6e2 9d3d 6ae9 fb3c 91a4 ec3d 6287 a83d
000003e0: 52f9 413d 67bb f93d b025 23bc b857 6d3c
000003f0: caf3 00bd 9f45 0abe 141e 99bd 62b4 9abd

ActorDistributionNetwork/EncodingNetwork/dense_1/MatMul f4 [100, 200]
-0.09795211 -0.053592212 0.01712501 0.0726928 0.12721951 0.11330439 -0.0949869 -0.13576947
0.014077693 0.14075358 0.11676486 -0.097036004 0.102216974 -0.10313614 -0.053597473 0.015373826
-0.07323201 0.12510867 0.11640315 -0.060292453 -0.06044981 -0.10842726 0.0859787 -0.06336287
0.04883963 -0.0041595846 0.13000979 -0.061750293 -0.021867305 -0.032497175 0.115934715 -0.07978968
0.085772485 -0.13884325 -0.13407156 -0.017605208 -0.02140905 -0.07689531 -0.040582187 0.114110634
0.059665784 0.11723237 -0.03012222 -0.03701508 -0.121597774 0.017736346 0.13298811 -0.105954215
0.008868307 0.12403162 -0.055342898 0.13021798 -0.1267168 -0.13552953 -0.08370355 0.03241366
0.018891633 -0.060979143 -0.037023515 0.015504032 -0.0996715 0.13644226 -0.042274743 0.12542178
-0.06330292 0.052308157 0.102917925 0.012353107 -0.07036687 -0.0024826229 0.13449393 0.063137695
0.054558694 -0.13841674 0.052124023 -0.13478394 0.038974404 -0.03631521 -0.04792252 0.10693692
0.09571236 -0.07604948 0.13372217 -0.03513132 -0.09505369 -0.12973626 -0.12801816 0.08254616
0.013648838 -0.04876917 -0.10983651 -0.09937027 -0.06438926 -0.013087064 0.026267529 -0.11445898
0.041071504 -0.063774325 0.11509071 0.10252221 -0.04215751 -0.11433962 -0.09295589 0.08000527
-0.033227533 0.113531396 0.050626263 0.11264549 0.055532113 -0.029603645 0.07777743 0.023920566
0.0345971 -0.1314214 0.043420285 -0.048574552 -0.06813544 -0.13980137 0.052585438 -0.026670963
0.023274437 -0.019299485 -0.0340906 0.097097605 -0.026448429 0.12539195 -0.036314607 0.056735218
-0.04013928 0.0571571 0.007013142 0.13692693 0.14022501 -0.10328059 0.048897833 -0.09784384
0.019197792 0.107616514 0.09868425 -0.019253962 0.04174292 0.046405092 -0.010081634 -0.13818027
-0.106471 0.1006608 -0.10953343 -0.038087904 -0.10249753 0.0631033 0.048989743 0.059555754
0.04062727 -0.053544708 0.003109768 -0.03199809 -0.12754703 -0.034689926 -0.08302606 -0.05622366
-0.001967281 0.04743409 -0.03319843 0.10975988 0.10076237 -0.050833315 -0.08970243 0.09666158
0.05582398 -0.0696907 -0.056556553 -0.128337 0.011459529 -0.1376966 0.012212679 -0.13816833
-0.06723647 -0.040872395 0.0070001185 -0.04610663 0.040193632 0.06860553 -0.09997567 -0.07011496
-0.045051172 -0.08911058 -0.010793611 0.103413776 -0.022403918 0.012360632 -0.06278488 0.0056958944
-0.01093182 -0.10759841 -0.0132121295 -0.058190204 0.024765626 -0.018060938 0.089725345 -0.10550317
-0.03829419 0.0357123 -0.13462156 0.01599072 0.059694365 -0.008262977 -0.09552118 -0.09473914
-0.07796604 -0.1134255 -0.017749727 0.07472125 0.01925245 -0.072067134 -0.06880918 -0.09804338
-0.06422256 -0.0064608157 -0.12797567 0.026248693 -0.13907641 0.037758484 -0.11132008 0.0262499
0.05720845 -0.10254119 -0.025248118 0.04776098 -0.100520745 0.1039895 0.07699822 0.059898794
-0.06927782 -0.059915558 0.1082028 0.1221896 -0.07474778 -0.023457356 0.025801256 -0.08431369
0.07916422 -0.0658756 -0.12882785 -0.043684773 0.10930584 0.07018918 -0.041606255 0.050223604
-0.11432077 0.08104384 -0.07133246 -0.08420418 -0.09914194 0.13964923 0.08035746 0.08833228
00000000: 1e9b c8bd 8283 5bbd c049 8c3c f6df 943d
00000010: d545 023e 220c e83d 7e88 c2bd 2707 0bbe
00000020: 20a6 663c b521 103e 6a22 ef3d d0ba c6bd
00000030: 2257 d13d 0a39 d3bd 0689 5bbd 80e2 7b3c
00000040: aafa 95bd 7d1c 003e c664 ee3d 38f5 76bd
00000050: 389a 77bd 1c0f debd 9a15 b03d 64c4 81bd
00000060: 100c 483d 204d 88bb 4921 053e e0ed 7cbd
00000070: 1023 b3bc c21b 05bd 2e6f ed3d c668 a3bd
00000080: 7ca9 af3d ed2c 0ebe 0e4a 09be cc38 90bc
00000090: 0862 afbc 4a7b 9dbd 8239 26bd d6b2 e93d
000000a0: 1c64 743d 8617 f03d e0c2 f6bc 209d 17bd
000000b0: 4108 f9bd d04b 913c 092e 083e 86fe d8bd
000000c0: 604c 113c 4a04 fe3d 3caf 62bd dd57 053e
000000d0: 0cc2 01be 41c8 0abe c46c abbd 30c4 043d
000000e0: a0c2 9a3c 44c5 79bd f8a5 17bd a004 7e3c
000000f0: 9220 ccbd 85b7 0b3e 4828 2dbd 916e 003e
00000100: f6a4 81bd 1441 563d a2c6 d23d b064 4a3c
00000110: 811c 90bd 80b3 22bb c7b8 093e 564e 813d
00000120: f078 5f3d 1ebd 0dbe 0080 553d cd04 0abe
00000130: a0a3 1f3d 42bf 14bd 684a 44bd be01 db3d
00000140: d804 c43d d4bf 9bbd 77ee 083e dce5 0fbd
00000150: 82ab c2bd 95d9 04be 3117 03be f60d a93d
00000160: 609f 5f3c 2ec2 47bd f7f1 e0bd a482 cbbd
00000170: 84de 83bd 206b 56bc 002f d73c 7869 eabd
00000180: 983a 283d 1d9c 82bd aeb4 eb3d 2af7 d13d
00000190: 5aad 2cbd e42a eabd a85f bebd ced9 a33d
000001a0: 9819 08bd 2683 e83d 7c5d 4f3d aeb2 e63d
000001b0: a475 633d 5883 f2bc c649 9f3d 10f5 c33c
000001c0: b0b5 0d3d 5593 06be 78d9 313d 1cf6 46bd
000001d0: 988a 8bbd 1728 0fbe d463 573d 107d dabc
000001e0: 08aa be3c f419 9ebc 96a2 0bbd 1cdb c63d
000001f0: 60aa d8bc bf66 003e a0be 14bd 3063 683d
00000200: 1669 24bd 901d 6a3d 80ce e53b 9336 0c3e
00000210: 2597 0f3e c684 d3bd 1849 483d 5a62 c8bd
00000220: b044 9d3c 0c66 dc3d f81a ca3d 7cba 9dbc
00000230: a0fa 2a3d 4413 3e3d 702d 25bc 217f 0dbe
00000240: 780d dabd 4027 ce3d 1053 e0bd 1002 1cbd
00000250: 3aea d1bd 4e3c 813d 78a9 483d bcf0 733d
00000260: c868 263d b251 5bbd 40cd 4b3b 6e10 03bd
00000270: b09b 02be 0617 0ebd 9109 aabd c84a 66bd
00000280: 80ed 00bb 404a 423d 14fb 07bd cac9 e03d
00000290: 805c ce3d 9836 50bd e8b5 b7bd 82f6 c53d
000002a0: b0a7 643d ffb9 8ebd d8a7 67bd c66a 03be
000002b0: c0c0 3b3c 5600 0dbe b017 483c 007c 0dbe
000002c0: 46b3 89bd d069 27bd 4061 e53b 4eda 3cbd
000002d0: 14a2 243d 0e81 8c3d 0bc0 ccbd 6f98 8fbd
000002e0: 9487 38bd 9c7f b6bd b0d7 30bc 9aca d33d
000002f0: 6c88 b7bc 4084 4a3c 5c95 80bd a0a4 ba3b
00000300: 601b 33bc 8e5c dcbd b077 58bc da58 6ebd
00000310: 48e1 ca3c 88f4 93bc ecc1 b73d 0c12 d8bd
00000320: 5eda 1cbd 1047 123d 3cda 09be f8fe 823c
00000330: 1482 743d 7061 07bc 9ca0 c3bd 9806 c2bd
00000340: a9ac 9fbd a14b e8bd e067 91bc 7407 993d
00000350: 50b7 9d3c ef97 93bd d4eb 8cbd f8ca c8bd
00000360: 1e87 83bd 40b5 d3bb 0e0c 03be 8007 d73c
00000370: 0c6a 0ebe a4a8 1a3d c8fb e3bd 080a d73c
00000380: 6853 6a3d 1e01 d2bd 24d5 cebc 04a1 433d
00000390: d2dd cdbd 72f8 d43d 3eb1 9d3d 7058 753d
000003a0: 88e1 8dbd 046a 75bd 6e99 dd3d 8a3e fa3d
000003b0: 5d15 99bd a429 c0bc 285d d33c a8ac acbd
000003c0: da20 a23d c9e9 86bd 73eb 03be ceee 32bd
000003d0: bedb df3d 58bf 8f3d 526b 2abd 44b7 4d3d
000003e0: 0221 eabd 50fa a53d c116 92bd 3e73 acbd
000003f0: ee0a cbbd 3500 0f3e 7492 a43d 8ee7 b43d

ActorDistributionNetwork/CategoricalProjectionNetwork/logits/MatMul f4 [44, 100]
-0.053977314 0.04609393 -0.033861533 -0.010526959 -0.015164582 -0.0027453448 0.032199662 0.01720694
0.035932496 -0.010921654 0.036632556 0.03988199 -0.012084268 0.056067836 0.020601602 -0.008173733
0.003532644 -0.024361413 -0.018221052 0.055950843 -0.03427296 -0.030146051 -0.038601294 0.0067819944
0.01004153 0.063312694 0.013374394 -0.015156611 0.054395385 0.02865792 -0.04551605 0.02211469
-0.011119773 0.0037300922 0.05940514 -0.05784128 0.048770078 0.0037791692 -0.014709835 -0.03154447
-0.034791883 -0.021755304 -0.0123023 0.032801904 0.035229314 -0.026340928 -0.027525367 -0.018706398
0.0038839916 -0.042992573 -0.014879794 0.061088916 -0.016644048 -0.0586067 -0.0330654 -0.031865522
0.01558024 0.008936512 -0.019749371 -0.007382268 -0.03152688 0.012734094 0.0027832468 0.0039967503
0.0060833404 -0.02549827 0.046626016 0.011729904 0.034029108 -0.04261983 -0.030015262 0.04299996
-0.0025287685 -0.017414352 0.030593317 -0.023003435 0.046611175 0.025196586 -0.024077823 0.021406393
-0.0048905476 -0.042251352 0.046224035 -0.035431877 0.055920187 -0.0022958815 -0.047115073 -0.032175668
-0.02411345 0.02127312 -0.051797096 -0.006469715 0.0543117 -0.022707634 0.04840958 -0.019041853
-0.037812322 0.023869809 0.0628642 0.012529284 -0.0028858297 0.020739678 0.0073044207 0.06732224
0.014632266 -0.000719308 0.03722215 -0.015733091 -0.07153831 0.030132797 0.014599394 -0.04852795
-0.006049238 0.0020314974 0.05942219 0.014503294 0.021395547 0.013668584 0.0067092655 0.025373593
0.013453036 -0.06882977 0.034554 0.0004135184 0.01437617 0.008937288 -0.036178764 0.015037767
0.0062567205 -0.05644328 0.06434822 0.055636715 -0.010524709 -0.016321773 -0.017498223 0.03834129
0.0018362282 -0.026995873 -0.029891513 -0.0009615083 -0.012783127 0.051088847 -0.03470788 -0.018514315
-0.04749462 0.0078824265 0.055775195 -0.037418697 0.0388936 0.014526636 -0.0010991904 -0.0044461284
-0.01500322 -0.00042270566 -0.06577307 -0.031180887 -0.039594647 -0.029754572 0.018427052 -0.0029956284
-0.0077569103 -0.03313795 -0.03571859 -0.037238665 0.004309355 0.00042702758 0.011257037 -0.016458623
-0.017180499 0.008821045 -0.012598138 0.02595661 0.008909387 0.04773523 0.032695312 0.020146415
0.0034849925 -0.047410805 0.027088009 -0.025758807 0.0018563078 -0.048330203 0.061005715 -0.021509377
0.022564681 -0.02366914 0.048568446 0.03553958 -0.011634104 -0.022093348 0.03630947 -0.009920341
0.0071331975 -0.03454201 -0.04298852 0.0010962589 -0.048165433 -0.048234344 0.0006128752 -0.034863815
-0.055564232 0.011254217 0.036881346 -0.02168685 -0.0051903753 -0.056454442 0.00783387 -0.032626454
-0.015926912 -0.060667925 -0.0032008025 -0.014138147 -0.02925967 -0.0041171587 -0.0018354778 0.034860983
0.012110172 -0.06471159 0.010837603 0.01532661 0.010317835 -0.03531873 0.006094943 -0.00016489287
0.050495364 -0.018096205 0.035307042 0.0010068103 -0.030844098 -0.029679194 -0.020175459 0.023708062
0.03141257 -0.03076867 -0.027602945 -0.03226692 0.012225621 0.0048466544 0.022916244 -0.022644734
0.06773375 -0.008346846 -0.041655064 -0.033784587 0.06558834 0.06807683 -0.020866767 0.049079906
-0.014119567 -0.053657126 0.0032927908 0.019287849 0.017365342 -0.043961126 -0.022943847 -0.02750698
00000000: 5117 5dbd fdcc 3c3d 64b2 0abd 4479 2cbc
00000010: de74 78bc 3eeb 33bb cbe3 033d 92f5 8c3c
00000020: f42d 133d bdf0 32bc 050c 163d 4c5b 233d
00000030: 18fd 45bc 63a7 653d b1c4 a83c 1feb 05bc
00000040: ee83 673b 9691 c7bc 5144 95bc b62c 653d
00000050: ce61 0cbd daf4 f6bc 641c 1ebd 7e3b de3b
00000060: 3b85 243c 16aa 813d 4620 5b3c 6f53 78bc
00000070: b2cd 5e3d 04c4 ea3c 0a6f 3abd de29 b53c
00000080: b52f 36bc 9074 743b ce52 733d faea 6cbd
00000090: 22c3 473d f0ab 773b 8501 71bc c634 01bd
000000a0: ef81 0ebd 2e38 b2bc 968f 49bc 4a5b 063d
000000b0: 9d4c 103d eec8 d7bc e17c e1bc 293e 99bc
000000c0: 918a 7e3b fb18 30bd 61ca 73bc 5f38 7a3d
000000d0: 1959 88bc 940d 70bd 966f 07bd 6c85 02bd
000000e0: 4344 7f3c 736a 123c 6fc9 a1bc f4e6 f1bb
000000f0: 5422 01bd a9a2 503c 2267 363b 2cf7 823b
00000100: c256 c73b bfe1 d0bc ecfa 3e3d c92e 403c
00000110: 1b62 0b3d 2292 2ebd 91e2 f5bc ba20 303d
00000120: b2b9 25bb 8ba8 8ebc d69e fa3c b371 bcbc
00000130: 5ceb 3e3d 1269 ce3c db3e c5bc 765c af3c
00000140: e340 a0bb c10f 2dbd 6a55 3d3d 0421 11bd
00000150: 910c 653d 8076 16bb bcfb 40bd a2ca 03bd
00000160: 9289 c5bc f744 ae3c 3129 54bd e7ff d3bb
00000170: f275 5e3d 5c05 babc 2049 463d a9fd 9bbc
00000180: 18e1 1abd 9e8a c33c f2be 803d a047 4d3c
00000190: 3020 3dbb 42e6 a93c ec59 ef3b 3ee0 893d
000001a0: 2cbc 6f3c f18f 3cba 4176 183d afe2 80bc
000001b0: ad82 92bd 0ed9 f63c 4c32 6f3c 3ec5 46bd
000001c0: b038 c6bb df22 053b af64 733d 399f 6d3c
000001d0: b745 af3c 32f2 5f3c 66d9 db3b 48dc cf3c
000001e0: 1f6a 5c3c 9ff6 8cbd 7f88 0d3d 80cd d839
000001f0: 078a 6b3c b46d 123c 2f30 14bd f760 763c
00000200: 2d05 cd3b 1231 67bd 00c9 833d 53e3 633d
00000210: d46f 2cbc 3db5 85bc 6f58 8fbc c20b 1d3d
00000220: 98ad f03a 7326 ddbc 0cdf f4bc bb0d 7cba
00000230: 5270 51bc 8a42 513d da29 0ebd 55ab 97bc
00000240: b889 42bd 4b25 013c 8874 643d 5944 19bd
00000250: e54e 1f3d 2101 6e3c b612 90ba d4b0 91bb
00000260: 11d0 75bc 989e ddb9 08b4 86bd 0f6f ffbc
00000270: ff2d 22bd dcbf f3bc 54f4 963c 4e52 44bb
00000280: ae2d febb a9bb 07bd a84d 12bd 9287 18bd
00000290: 7d35 8d3b ace2 df39 6f6f 383c 3cd4 86bc
000002a0: 1ebe 8cbc 2586 103c 6c68 4ebc f5a2 d43c
000002b0: adf8 113c 0486 433d 85eb 053d 180a a53c
000002c0: 7964 643b d531 42bd ace7 dd3c 2204 d3bc
000002d0: 5b4f f33a e4f5 45bd 21e1 793d 6f34 b0bc
000002e0: 91d9 b83c c9e5 c1bc b5ef 463d f391 113d
000002f0: f89c 3ebc 1cfd b4bc 3db9 143d ed88 22bc
00000300: 99bd e93b ec7b 0dbd bb14 30bd 58b0 8f3a
00000310: 1e49 45bd 6091 45bd 5ca9 203a 5ccd 0ebd
00000320: 5297 63bd 9b63 383c e510 173d 9fa8 b1bc
00000330: 0614 aabb c63c 67bd a259 003c 51a3 05bd
00000340: 2879 82bc ee7e 78bd 8ec4 51bb b0a3 67bc
00000350: fab1 efbc 3be9 86bb 6a94 f0ba 64ca 0e3d
00000360: be69 463c 8387 84bd 3490 313c 761c 7b3c
00000370: 230c 293c 5faa 10bd 16b8 c73b 18e7 2cb9
00000380: 3ad4 4e3d 7e3e 94bc 1e9e 103d f3f6 833a
00000390: c3ac fcbc c821 f3bc 0147 a5bc 6937 c23c
000003a0: 78aa 003d 940e fcbc 921f e2bc 512a 04bd
000003b0: f94d 483c afd0 9e3b d9ba bb3c 7381 b9bc
000003c0: feb7 8a3d 36c1 08bc 809e 2abd b561 0abd
000003d0: 2e53 863d dd6b 8b3d c8f0 aabc 0308 493d
000003e0: c255 67bc 93c7 5bbd ddcb 573b 8d01 9e3c
000003f0: c341 8e3c 9510 34bd bcf4 bbbc 5156 e1bc
