package/model/policy.tflite (tflite, 67500 bytes, 6 tensors)

ActorDistributionNetwork/CategoricalProjectionNetwork/logits/BiasAdd/ReadVariableOp f4 [44]
0	0xbbabc193	-0.0052415817
1	0xbc09d44b	-0.008412431
2	0xbb8f7883	-0.00437838
3	0xbc79211e	-0.01520565
4	0xbac3f1ae	-0.0014949345
5	0xbbbd06c8	-0.0057686307
6	0xbc3bfdee	-0.011474116
7	0x3c37dbff	0.011221885
8	0x3c890510	0.016726047
9	0x3c31fb56	0.010863146
10	0x3b15e03c	0.002286925
11	0x3abdd0d0	0.0014481787
12	0x3c40f84c	0.011777949
13	0x398c53c8	0.00026765303
14	0x3be30cc5	0.0069290125
15	0x3c18e7b1	0.009332583
16	0xbba6d80c	-0.0050916728
17	0xba921633	-0.0011145532
18	0xb9e61cb4	-0.00043890404
19	0xbaefb4d9	-0.001828815
20	0xbc001a8e	-0.007818831
21	0xbbe15eb6	-0.0068777455
22	0xb981f742	-0.0002478902
23	0xbb213730	-0.0024599545
24	0xbb6f18dc	-0.0036483323
25	0x3a50ee12	0.00079700456
26	0x3c31b52b	0.0108464165
27	0x3bc02aa8	0.00586446
28	0x3c6ac4b4	0.014329124
29	0xbc92a4e8	-0.017900899
30	0x3baafe76	0.0052183224
31	0xbc42b685	-0.011884336
32	0xbbb1d5c8	-0.005427096
33	0x3c21e719	0.009881758
34	0xbad56900	-0.0016281903
35	0x3b502a23	0.0031763397
36	0x3bde4f40	0.0067843497
37	0x39e93bca	0.0004448577
38	0xbc041a61	-0.00806293
39	0xbbc17f76	-0.005905087
40	0xbb841614	-0.004030952
41	0x3bbd1ded	0.0057713897
42	0xbbbfb0a4	-0.0058499146
43	0xbc511096	-0.012760302

ActorDistributionNetwork/EncodingNetwork/dense_1/BiasAdd/ReadVariableOp f4 [100]
0	0x3cd00c1a	0.025396395
1	0x3c4a48e7	0.012346483
2	0xbc1abcc6	-0.009444421
3	0x3b305ca5	0.002691069
4	0xbb5216df	-0.003205709
5	0x00000000	0.0
6	0xbb6e382e	-0.0036349404
7	0x00000000	0.0
8	0x3c98c498	0.01864843
9	0xbb2b1cec	-0.0026109768
10	0x3b11c265	0.0022241112
11	0x3c17bbde	0.0092611
12	0x3ae0ea86	0.0017159737
13	0xbb9aef5b	-0.0047282404
14	0xbc721573	-0.014775622
15	0xbae2d17a	-0.001730486
16	0xbc79d6e2	-0.015248986
17	0x3980fa9c	0.0002460078
18	0xbb854b28	-0.004067797
19	0x3b91a88f	0.0044451426
20	0xbbb48d5f	-0.005510017
21	0xbbcf3a82	-0.0063241133
22	0xbadfa2c0	-0.0017062053
23	0x3b1aa2cb	0.0023595567
24	0x3c8f9d03	0.017530924
25	0x00000000	0.0
26	0xbc2eed9e	-0.01067677
27	0xbc2a00f8	-0.0103762075
28	0x3bd288e4	0.00642501
29	0xbb8b3b86	-0.004249039
30	0xbc10869c	-0.008821156
31	0xbb3d6c0a	-0.0028903508
32	0x00000000	0.0
33	0xbbeee1d0	-0.0072901025
34	0xbb9a7544	-0.004713686
35	0xbc19c818	-0.009386085
36	0x3a932dae	0.0011228824
37	0x3c481ddd	0.012214151
38	0xbab2b1e0	-0.0013633333
39	0x00000000	0.0
40	0xbb58c00e	-0.0033073458
41	0x3b36a307	0.0027868168
42	0xbb3005c8	-0.0026858915
43	0xbbfd7de7	-0.007735956
44	0xbc093d44	-0.008376423
45	0xbadd5726	-0.0016886934
46	0xbb5190cb	-0.0031977172
47	0x00000000	0.0
48	0xbbf6857c	-0.007523237
49	0xbafcea07	-0.001929582
50	0xbb266821	-0.0025391656
51	0xbb8a7068	-0.0042248257
52	0xba8897e6	-0.0010421246
53	0x00000000	0.0
54	0xb868ce93	-5.5505498e-05
55	0x3c7b4dd5	0.015338381
56	0xbc8c843f	-0.017152904
57	0x3b973136	0.0046140207
58	0xbc7f5057	-0.015583119
59	0xbc10ad95	-0.008830448
60	0x3c872158	0.016495392
61	0x00000000	0.0
62	0xbbdb2098	-0.006687235
63	0x00000000	0.0
64	0x3bec7124	0.007215636
65	0xba2cfe7d	-0.0006599201
66	0x00000000	0.0
67	0xbbc471ee	-0.005995027
68	0x3b3170ed	0.0027075366
69	0xbc44cd79	-0.012011879
70	0x00000000	0.0
71	0x3ba3a273	0.0049937307
72	0xbba02d4b	-0.004888212
73	0xbbc27a45	-0.005934986
74	0xbc06d4e7	-0.008229471
75	0xbc3dd3e2	-0.011586161
76	0xbaa47ba9	-0.0012549061
77	0x3c826b81	0.015920402
78	0x00000000	0.0
79	0xbaca51f6	-0.0015435803
80	0xbc0ac1ed	-0.008469087
81	0x3c06dec0	0.008231819
82	0x3b02cd31	0.001995873
83	0xbbb5c6f1	-0.0055473973
84	0xbc0f7ed9	-0.00875827
85	0xbc19d654	-0.009389479
86	0xbb3e1121	-0.002900191
87	0xbb76eb0a	-0.0037676715
88	0xbbce5b0c	-0.0062974747
89	0x3b593212	0.0033141416
90	0xbbd1a287	-0.0063975486
91	0xbb72de22	-0.003705867
92	0xbad76cf6	-0.0016435671
93	0xbb9cff59	-0.004791182
94	0x00000000	0.0
95	0xbbaac4bc	-0.005211441
96	0xbc1493e2	-0.009068461
97	0xbbb107bc	-0.0054025333
98	0xbb7e3ef2	-0.0038794843
99	0xbbc626cd	-0.006047106

ActorDistributionNetwork/EncodingNetwork/dense/BiasAdd/ReadVariableOp f4 [100]
0	0x3be2a679	0.0069168177
1	0x3925d329	0.0001581429
2	0x00000000	0.0
3	0xbc3ee043	-0.011650148
4	0x3c6fb3f9	0.014630311
5	0xbb9787a6	-0.004624325
6	0x00000000	0.0
7	0xbb75d84a	-0.0037512952
8	0x00000000	0.0
9	0xbc2e3fda	-0.010635341
10	0x3b3a440a	0.0028421902
11	0xbc56a81c	-0.013101604
12	0x3c37e084	0.011222962
13	0xbc0e45aa	-0.008683601
14	0x3c4c3899	0.012464666
15	0xbc0867aa	-0.008325497
16	0x00000000	0.0
17	0xbaadae34	-0.0013250769
18	0x3a829632	0.0009962975
19	0x3c4ff040	0.012691557
20	0x3b7c7ca0	0.003852643
21	0x3b4d5792	0.0031332714
22	0xbbbd2ba1	-0.0057730232
23	0x00000000	0.0
24	0x3c0da567	0.008645392
25	0x00000000	0.0
26	0xbab00c61	-0.0013431424
27	0x3c92575a	0.017863918
28	0x3b2a213f	0.0025959758
29	0xbbe8648d	-0.0070920647
30	0xbc37e418	-0.011223815
31	0xbc2babcb	-0.01047797
32	0xbc48eb00	-0.01226306
33	0xbb1088f9	-0.0022054298
34	0xbc121f18	-0.008918546
35	0x3ab4c930	0.0013792869
36	0x3bdcabc4	0.0067343432
37	0x3c605adb	0.013693537
38	0x3c2122c2	0.009834947
39	0xbb216b63	-0.0024630658
40	0xbb290f25	-0.002579638
41	0x3a74a87c	0.00093329675
42	0x00000000	0.0
43	0xbbcf5867	-0.006327677
44	0x3ba36333	0.0049861907
45	0x3c11743c	0.00887781
46	0x3aafc202	0.0013409259
47	0xbab00287	-0.0013428488
48	0x3c1f2bd0	0.009715036
49	0x3b045382	0.0020191376
50	0xbb1f2b35	-0.0024287228
51	0x3c0f535f	0.008747905
52	0xbbd7b738	-0.0065831207
53	0xbb745ef0	-0.0037288032
54	0x00000000	0.0
55	0xb9ef2e14	-0.00045619963
56	0x3b91c70c	0.004448777
57	0xbc58454c	-0.013200115
58	0xbc3f9e22	-0.011695417
59	0xbb806950	-0.003918804
60	0xba00d9d0	-0.0004915269
61	0x3bd62f65	0.0065364116
62	0xbacc86e9	-0.0015604171
63	0x3beedde3	0.0072896346
64	0xbc2f2b78	-0.010691516
65	0x3b80d9a5	0.0039321952
66	0xbbfdd415	-0.0077462294
67	0xbbe1f60d	-0.0068957866
68	0xbb9c4891	-0.004769393
69	0x3c2d9343	0.010594192
70	0x3c5830fb	0.013195272
71	0x3a558b76	0.00081460865
72	0xbbc29ea8	-0.0059393235
73	0xbc3c9f40	-0.0115125775
74	0x3be8cc68	0.0071044452
75	0x39886072	0.000260118
76	0xba801359	-0.0009771391
77	0xbc4bed02	-0.012446644
78	0xbc2136e3	-0.009839746
79	0xbc921868	-0.017833903
80	0x3c9d48c2	0.019199733
81	0xbb99c4a2	-0.00469263
82	0x00000000	0.0
83	0xbc0f338b	-0.008740316
84	0xbc12d937	-0.008962921
85	0xbbb30204	-0.0054628868
86	0x00000000	0.0
87	0x00000000	0.0
88	0x3badc903	0.0053035035
89	0xbbd7ec78	-0.0065894686
90	0xbbd258e4	-0.006419288
91	0x3bb0a4d6	0.0053907437
92	0x3bc5f301	0.006040931
93	0xbc71b08b	-0.014751564
94	0x3c118b53	0.008883315
95	0xbbbd3467	-0.005774069
96	0xbbbdda5d	-0.005793853
97	0x3b4e9a6f	0.0031525155
98	0xba7e05d7	-0.0009690201
99	0x3bf91bb6	0.0076021804

ActorDistributionNetwork/EncodingNetwork/dense/MatMul f4 [100, 6]
0	0xbd4ebc16	-0.05047234
1	0xbd223fcf	-0.039611634
2	0xbdfda54d	-0.12385044
3	0x3ce4ee95	0.027945796
4	0x3ca252be	0.019814845
5	0x3e0de7fa	0.13858023
6	0xbdd61b6c	-0.10454449
7	0xbd3e5e99	-0.046476934
8	0x3df5705e	0.11984323
9	0x3e08aeff	0.13348006
10	0xbd6463ee	-0.055759363
11	0xbc820ca8	-0.015875176
12	0xbe5bdf84	-0.21471983
13	0xbd6aef6c	-0.057357237
14	0x3c7a28b0	0.01526849
15	0xbe1e88ae	-0.15481827
16	0xbd5346e0	-0.051581264
17	0xbe504e36	-0.20342335
18	0xbdde8f9a	-0.108672336
19	0xbd16718c	-0.03672938
20	0x3e1fc902	0.15604022
21	0x3d8fb753	0.07017388
22	0x3e013952	0.12619522
23	0x3e616ccb	0.22014157
24	0x3dcbd24e	0.09952222
25	0xbdacb72d	-0.084333755
26	0x3e08af37	0.13348089
27	0x3d1c960d	0.038229037
28	0x3da965bc	0.082713574
29	0xbe437346	-0.19086942
30	0xbd5c73e7	-0.05382147
31	0x3d74b4ae	0.059742622
32	0x3d0547a4	0.032539025
33	0x3e271b32	0.16318968
34	0xbce6007e	-0.028076407
35	0x3e437eb6	0.19091305
36	0x3d519c1c	0.051174268
37	0xbe710c17	-0.23539768
38	0xbde3688c	-0.11103925
39	0x3d1f902c	0.038955852
40	0xbe509260	-0.20368338
41	0xbd4d727c	-0.05015801
42	0xbe70e768	-0.23525774
43	0x3d70d4d1	0.058796708
44	0x3e2b6dd4	0.16741115
45	0xbd4848d1	-0.048897568
46	0xbb87064e	-0.0041206246
47	0x3e54937c	0.20759386
48	0x3d2075f4	0.03917499
49	0xbe5dcede	-0.21660945
50	0xbe71dcf4	-0.23619443
51	0xbdd61636	-0.10453455
52	0xbe2e6272	-0.17029741
53	0xbe2a81c6	-0.16651067
54	0xbe3d8f87	-0.18511783
55	0x3df66aa7	0.12032061
56	0x3b38626c	0.0028134836
57	0x3ce60875	0.028080205
58	0xbdfb9f4d	-0.122862436
59	0x3db229ba	0.08699365
60	0x3e514915	0.20438035
61	0xbdd31263	-0.10306241
62	0xbd7d88d6	-0.061898075
63	0xbdba700d	-0.09103403
64	0xbdedbc36	-0.11608164
65	0xbe376715	-0.17910416
66	0xbdb256bf	-0.08707952
67	0xbd79303b	-0.06083701
68	0x3e6013b2	0.21882513
69	0xbde491b0	-0.111606
70	0xbe7bfd37	-0.24608313
71	0x3cd3ebf6	0.02586935
72	0xbe299e84	-0.16564375
73	0x3df00762	0.11720158
74	0x3e6e7143	0.23285393
75	0x3d601d82	0.05471564
76	0xbcc6499a	-0.024205018
77	0x3e251f89	0.16125311
78	0x3d0c0724	0.034186497
79	0xbd61c250	-0.05511695
80	0xbe42bab2	-0.19016531
81	0xbe565b88	-0.20933354
82	0xbc4691b6	-0.012119701
83	0x3d984686	0.07435326
84	0x3e415090	0.18878388
85	0x3b5af083	0.0033407516
86	0x3e44a285	0.19202621
87	0xbe3f4380	-0.18678093
88	0x3ded5536	0.11588518
89	0xbccb23c3	-0.024797326
90	0xbdc0a780	-0.09406948
91	0xbd82c785	-0.063857116
92	0x3dc483f5	0.09595481
93	0xbdca8ecc	-0.098905176
94	0x3d536720	0.05161202
95	0x3e4ed0fa	0.20196906
96	0xbe56dbc4	-0.20982271
97	0xbe1c4fa0	-0.1526475
98	0xbe01fa56	-0.12693152
99	0xbe51d2b6	-0.20490536
100	0xbd1253ac	-0.035724327
101	0xba5c2500	-0.00083978474
102	0x3c858d0a	0.016302604
103	0x3c865c0a	0.01640131
104	0x3d3356ed	0.04378407
105	0x3c768988	0.015047438
106	0xbe14a3d3	-0.14515619
107	0xbd95c12a	-0.07312234
108	0x3d872745	0.06599287
109	0xbdcf998e	-0.1013671
110	0xbdff7992	-0.124743596
111	0xbd19a592	-0.037511416
112	0x3e731982	0.23740199
113	0x3d62fd3b	0.05541728
114	0x3e3bb4ba	0.1833066
115	0xbe093875	-0.13400443
116	0x3e363c23	0.17796378
117	0xbe40b1c2	-0.18817809
118	0xbe09fabe	-0.13474557
119	0x3e6b3486	0.22969255
120	0x3e51f6f4	0.20504361
121	0x3e44263a	0.19155207
122	0x3dade076	0.08490078
123	0xbd8f18d9	-0.06987161
124	0x3d2de25c	0.0424522
125	0x3d57578a	0.052573718
126	0xbe2ff76e	-0.1718423
127	0x3dccf229	0.10007126
128	0x3e4c08f2	0.19925287
129	0xbd76dfa7	-0.060271885
130	0xbe2cc6da	-0.16872731
131	0xbd11672f	-0.035498794
132	0x3e713a16	0.23557314
133	0x3e2e6763	0.17031626
134	0x3e5c6e1b	0.21526377
135	0x3e40b76d	0.18819971
136	0xbd0f527b	-0.03499077
137	0x3e6b14fb	0.22957222
138	0x3e245437	0.1604775
139	0xbd58b968	-0.052911192
140	0xbdeb2ecd	-0.11483536
141	0x3c852ce8	0.016256765
142	0xbd59b2c0	-0.053148985
143	0xbdf286ed	-0.11842141
144	0xbc077d46	-0.008269614
145	0xbe203dc5	-0.15648563
146	0xbd4de000	-0.05026245
147	0xbe19fb92	-0.15037373
148	0x3e2fb5a2	0.17159131
149	0xbda7c30e	-0.081915006
150	0xbdb0e4e4	-0.086374074
151	0xbe28659d	-0.16445012
152	0xbdba5ed4	-0.09100118
153	0x3d2a8e24	0.041639462
154	0xbd1c8604	-0.038213745
155	0xbd923700	-0.07139397
156	0xbe0caa69	-0.13736881
157	0xbe566d57	-0.20940147
158	0xbe24472a	-0.16042772
159	0x3dcd400e	0.10021983
160	0x3e3fc64f	0.18727992
161	0x3c121be9	0.008917787
162	0x3c66d9e9	0.01409004
163	0x3cbd67e0	0.02312082
164	0x3e5cb100	0.21551895
165	0xbc6ddf39	-0.014518552
166	0x3e67be43	0.22631173
167	0x3d3c68b4	0.04599829
168	0xbe02193f	-0.12704943
169	0xbce54280	-0.027985811
170	0xbdb089e0	-0.086200476
171	0xbe37bcdc	-0.17943138
172	0x3e1c0fce	0.15240404
173	0x3e0d182c	0.13778752
174	0xbd879b31	-0.06621397
175	0x3e6470cb	0.22308652
176	0xbe3effbf	-0.18652247
177	0xbdb4fc16	-0.08837144
178	0x3e44b194	0.19208366
179	0x3d9bfe1b	0.07616826
180	0x3e4e7f91	0.2016585
181	0xbc4fd2e7	-0.01268456
182	0xbe2fd540	-0.17171192
183	0xbca298b9	-0.019848214
184	0xbc102c43	-0.008799615
185	0x3d88157d	0.066447236
186	0xbe7de637	-0.24794851
187	0x3e2a95dc	0.1665873
188	0x3e4a592f	0.19760583
189	0xbdf9e60f	-0.12202083
190	0xbcde2604	-0.027117737
191	0x3e080fd8	0.13287294
192	0x3d362f31	0.0444786
193	0x3e0cb224	0.1373983
194	0xbe5eb0fe	-0.21747205
195	0x3e41f82c	0.18942326
196	0xbd3fb541	-0.046803717
197	0xbd8cf59a	-0.06882782
198	0xbb471712	-0.0030378741
199	0x3e74d9d7	0.23911224
200	0x3dc4217b	0.095766984
201	0xbe54a9d7	-0.20767914
202	0xbb4387f9	-0.0029835685
203	0xbbd43ade	-0.006476744
204	0xbd952604	-0.072826415
205	0xbd61b424	-0.055103436
206	0x3d0ddf7a	0.034636952
207	0x3d61e89e	0.05515348
208	0x3dc16349	0.09442765
209	0xbe1a14b4	-0.1504696
210	0x3d04eb6c	0.03245108
211	0xbe0f7380	-0.14008904
212	0xbd847485	-0.06467537
213	0x3c890f53	0.01673094
214	0x3e06c0eb	0.1315953
215	0x3c937f03	0.0180049
216	0x3dce63e2	0.10077645
217	0xbd6f138b	-0.058368247
218	0xbd1a5ec3	-0.037688028
219	0x3d80d992	0.06291498
220	0xbe43a9f3	-0.19107799
221	0x3dda61d9	0.10663194
222	0xbdcbc168	-0.09948999
223	0x3e7041fc	0.23462671
224	0xbcbd875b	-0.023135832
225	0x3c9801ed	0.018555606
226	0x3e03500e	0.12823507
227	0x3e4e138a	0.20124641
228	0xbe354440	-0.17701817
229	0xbb8f5e47	-0.0043752524
230	0x3e19f0b0	0.15033221
231	0xbdbf9be8	-0.09355909
232	0xbe300497	-0.17189251
233	0x3d08e84f	0.03342467
234	0x3e4a1c96	0.19737467
235	0xbc20a71d	-0.009805468
236	0x3d8a5caf	0.06755959
237	0xbe11b821	-0.14230396
238	0xbe058572	-0.13039187
239	0xbe016865	-0.1263748
240	0x3e594884	0.21219069
241	0xbdc0adcc	-0.09408149
242	0x3e70a80e	0.23501608
243	0xbe548023	-0.20752005
244	0x3e328196	0.17432246
245	0x3df4e3ed	0.11957536
246	0x3dd5da13	0.10441985
247	0xbe481f3a	-0.19543162
248	0xbe4a326a	-0.19745794
249	0xbe3570fe	-0.17718884
250	0x3e6092d7	0.21931015
251	0x3b906576	0.0044066263
252	0x3db70b36	0.08937685
253	0xbe24c954	-0.16092426
254	0xbe3e481c	-0.18582195
255	0xbe592b8d	-0.2120802

ActorDistributionNetwork/EncodingNetwork/dense_1/MatMul f4 [100, 100]
0	0x3d3f3b47	0.04668739
1	0x3d114bcd	0.03547268
2	0xbe2caef5	-0.16863616
3	0xbdd90fe0	-0.10598731
4	0x3e2b218a	0.16712013
5	0xbd6ba016	-0.057525717
6	0xbe26d10e	-0.16290686
7	0xbd811479	-0.06302733
8	0x3e066150	0.1312306
9	0xbd978201	-0.07397843
10	0xbcce7424	-0.025201865
11	0xbd3cc065	-0.04608192
12	0x3d80d912	0.06291403
13	0xbda52b92	-0.08064951
14	0xbd64f640	-0.055898905
15	0x3e33d7d5	0.17562802
16	0xbc8882d0	-0.016663939
17	0x3e05e802	0.13076785
18	0x3e3ed384	0.18635374
19	0xbd735bed	-0.05941384
20	0x3e1eecb3	0.15519981
21	0xbe0c4c9a	-0.13701096
22	0x3e179682	0.14803508
23	0x3c6f3850	0.014600828
24	0x3e0f57b9	0.13998307
25	0x3dd10b38	0.10207218
26	0xbe00ae69	-0.12566532
27	0xbe0512d2	-0.1299546
28	0x3e3eda2b	0.18637912
29	0x3d0b2012	0.03396613
30	0xbdb726e6	-0.08942966
31	0x3d6ad494	0.057331637
32	0xbddb2647	-0.1070066
33	0x3cc0e4e6	0.023546647
34	0x3d8a096a	0.06740077
35	0x3d98119d	0.074252345
36	0xbb4dd9d9	-0.0031410365
37	0x3cc7e993	0.024403369
38	0x3d1563fe	0.036472313
39	0x3e266ead	0.16253157
40	0xbdfa95c2	-0.12235595
41	0x3d9ef368	0.0776127
42	0xbe27c00e	-0.16381857
43	0x3ab01c86	0.0013436235
44	0x3c568224	0.013092551
45	0x3dddcf12	0.10830511
46	0x3e1a0a2d	0.15042944
47	0x3dc1ff87	0.09472566
48	0x3e071ce0	0.13194609
49	0xbe0241e6	-0.12720451
50	0x3de96683	0.11396506
51	0x3db28ed5	0.08718649
52	0xbdb63a27	-0.088978104
53	0xbe0bbcc5	-0.13646229
54	0x3e0ddd50	0.13853955
55	0xbc366316	-0.011132022
56	0xbe0c4f6c	-0.13702172
57	0xbc9d2ae4	-0.01918549
58	0xbda872b4	-0.08225003
59	0x3e20b312	0.1569331
60	0xbdecc87f	-0.11561679
61	0x3d4b46c0	0.04962802
62	0x3e1d1e4f	0.15343593
63	0xbdd3b12e	-0.10336529
64	0x3e0e0c0a	0.1387178
65	0x3ca57d6f	0.020201413
66	0xbd9835bf	-0.07432126
67	0x3ded8378	0.11597341
68	0xbe054795	-0.13015588
69	0x3df2301e	0.11825584
70	0xbd39d4c8	-0.04536894
71	0x3c4d4041	0.012527526
72	0xbdff769c	-0.12473795
73	0x3d411191	0.047135893
74	0x3dc40f1b	0.09573194
75	0x3ddcfd41	0.10790492
76	0x3d95a22f	0.07306325
77	0xbe1b5e7c	-0.15172762
78	0xbcfdcaf2	-0.03098056
79	0xbe01e1cd	-0.12683792
80	0x3dc36219	0.09540195
81	0x3dee735a	0.11643095
82	0x3e022ada	0.12711659
83	0x3e1a4800	0.15066528
84	0x3ccec291	0.02523926
85	0x3dd463ac	0.103705734
86	0xbe1ad12d	-0.15118857
87	0xbc9e0280	-0.019288301
88	0xbd641906	-0.055687927
89	0xbdecbd33	-0.115595244
90	0x3c9b8837	0.01898585
91	0xbd51167d	-0.051046837
92	0x3e35ad61	0.1774192
93	0xbd809a38	-0.06279415
94	0xbdb55aa4	-0.08855179
95	0xbc8a0e06	-0.01685239
96	0x3e1c0de1	0.1523967
97	0x3c81f568	0.01586409
98	0x3e03fe48	0.1288997
99	0x3e23e347	0.16004668
100	0xbe08c796	-0.13357386
101	0xbd28d161	-0.041215304
102	0x3d454a14	0.04816635
103	0x3d98d71e	0.07462905
104	0x3d2bf3fe	0.041980736
105	0x3d8f0c0f	0.06984722
106	0x3e255576	0.16145882
107	0xbdc1be23	-0.09460094
108	0x3e08bb70	0.13352752
109	0x3e06941e	0.1314244
110	0xbd9142c5	-0.070928134
111	0x3e07febe	0.1328077
112	0x3e34626c	0.1761567
113	0xbdf91b4c	-0.121634096
114	0x3d301355	0.042987186
115	0x3d06a2ff	0.03287029
116	0xbdb0c28a	-0.086308554
117	0xbdd8dee0	-0.10589385
118	0x3dac99b2	0.084277526
119	0x3d70f92d	0.058831383
120	0x3e318897	0.17337261
121	0xbc22d1ff	-0.009937762
122	0x3d9e6508	0.07734114
123	0xbe2e943c	-0.17048734
124	0x3e254746	0.1614047
125	0xbdb1914e	-0.08670293
126	0x3d515e12	0.051115103
127	0x3e1487aa	0.14504877
128	0xbcc9ae69	-0.024619298
129	0x3db7f4e2	0.089822546
130	0x3d6cc459	0.05780444
131	0xbd0fd900	-0.035119057
132	0xbdf133c7	-0.11777454
133	0x3df2decd	0.11858902
134	0x3cad8f02	0.021186356
135	0x3d6ddb6c	0.058070585
136	0xbc5f091d	-0.013613013
137	0xbe097c87	-0.1342641
138	0x3d808021	0.06274439
139	0xbd0ef12f	-0.03489798
140	0x3d76b168	0.06022778
141	0xbd1ff94c	-0.039056107
142	0x3dc8f658	0.09812611
143	0xbd6d278a	-0.057899036
144	0x3d171b80	0.03689146
145	0x3d1296b9	0.03578827
146	0x3df9089a	0.12159844
147	0x3d147c57	0.036251392
148	0xbd7683b2	-0.06018419
149	0x3d328f05	0.043593425
150	0xbe34af2b	-0.17644946
151	0x3d9f9041	0.07791186
152	0xbce522e3	-0.027970737
153	0xbdf07873	-0.11741724
154	0x3dbc398c	0.09190664
155	0xbe0fdce5	-0.14049108
156	0x3e04b85a	0.1296095
157	0xbdb579af	-0.088611
158	0xbe10a7fb	-0.1412658
159	0x3d2919fb	0.041284543
160	0x3e24b525	0.16084726
161	0x3e0d5a2d	0.1380393
162	0x3d4a0e75	0.049330194
163	0xbc2256df	-0.009908407
164	0x3d3d2f1d	0.04618751
165	0xbe209ce2	-0.15684846
166	0xbe132512	-0.1436961
167	0x3e3a4085	0.18188675
168	0x3d09f185	0.033677597
169	0x3e068946	0.13138303
170	0x3db3123a	0.08743711
171	0x3db852e7	0.09000187
172	0xbe179ed6	-0.14806685
173	0xbc892da8	-0.016745403
174	0xbdca7d6b	-0.09887203
175	0xbc9f6944	-0.019459374
176	0x3d3f8948	0.04676178
177	0x3b3e9ab6	0.0029083914
178	0xbd3a51ca	-0.045488156
179	0x3c23b2c1	0.009991349
180	0x3e1aa88d	0.1510336
181	0xbd32b9bc	-0.04363416
182	0xbc1d8330	-0.009613797
183	0xbd9fd7cb	-0.07804831
184	0x3d19f680	0.037588596
185	0xbdd9c8a3	-0.106339715
186	0x3e247a0c	0.16062182
187	0xbd3a9af4	-0.04555793
188	0xbdf7adb0	-0.12093675
189	0xbd7a4da2	-0.061109193
190	0xbe28b3c9	-0.16474833
191	0xbd98da5f	-0.07463526
192	0xbdf88d2b	-0.12136301
193	0xbc99bfbc	-0.018768184
194	0x3e278321	0.16358615
195	0x3dc7095d	0.09718583
196	0x3de0ed88	0.109828055
197	0x3dfb4055	0.1226813
198	0xbce75395	-0.028238097
199	0x3ddd57ea	0.10807784
200	0x3a563c00	0.0008172393
201	0x3d67c7f9	0.056587193
202	0xbd09fb7c	-0.0336871
203	0xbe12d8ab	-0.14340465
204	0xbcd7d540	-0.026346803
205	0xbc8e7fe8	-0.017394975
206	0xbdf41518	-0.11918086
207	0xbdd31655	-0.10306994
208	0x3d0035a0	0.03130114
209	0x3db40098	0.08789176
210	0x3e2e5ece	0.17028353
211	0x3df09c3e	0.11748551
212	0x3e1d5303	0.15363698
213	0xbcb9d7b8	-0.02268587
214	0x3d0001f6	0.03125187
215	0x3da54110	0.0806905
216	0x3da48a90	0.08034241
217	0x3df1ed16	0.11812799
218	0x3d8a7200	0.06760025
219	0xbe0784a6	-0.13234195
220	0xbdd31924	-0.103075296
221	0x3de312d7	0.11087578
222	0xbc595ded	-0.013267023
223	0xbe01aa8f	-0.12662719
224	0x3e236680	0.1595707
225	0x3dc9d2a8	0.098546326
226	0xbe013260	-0.12616873
227	0xbca1b6a7	-0.019740416
228	0xbd984e2c	-0.07436785
229	0x3d183dcd	0.037168313
230	0x3e278c03	0.16362004
231	0x3d6abf79	0.05731151
232	0xbd84722a	-0.064670876
233	0xbe35aabc	-0.17740911
234	0x3d9feac2	0.078084484
235	0x3d8044a5	0.06263093
236	0x3d31c2f6	0.04339882
237	0xbde5057f	-0.11182689
238	0x3d8b2b00	0.06795311
239	0x3dced5ed	0.10099397
240	0x3e0f7b4f	0.14011882
241	0xbe20fa9c	-0.157206
242	0xbca975d0	-0.02068606
243	0xbdbda50d	-0.092599966
244	0x3ded48fd	0.11586187
245	0xbd34ec43	-0.04417063
246	0xbe1dc6be	-0.15407845
247	0x3d4ddcd8	0.05025944
248	0xbe224f6a	-0.15850607
249	0x3e1eb521	0.15498783
250	0xbd6275e1	-0.0552882
251	0xbd2badda	-0.041913845
252	0xbbad0b17	-0.005280863
253	0xbdc65e1a	-0.09685917
254	0x3de38ffc	0.11111447
255	0xbe1b9867	-0.15194856

ActorDistributionNetwork/CategoricalProjectionNetwork/logits/MatMul f4 [44, 100]
0	0xbc6aca14	-0.014330406
1	0xbcc19495	-0.02363042
2	0xbbde3496	-0.006781171
3	0xbcbc8512	-0.023012672
4	0xbcdba61f	-0.026812611
5	0x3d392eb5	0.04521056
6	0xbd9b628a	-0.07587154
7	0xbc4f9497	-0.012669704
8	0xbb0927f3	-0.0020928353
9	0x3cb8bd9e	0.022551354
10	0xbc41f59f	-0.011838346
11	0xbcac3bf3	-0.02102468
12	0x3caef082	0.021354917
13	0xbd88d8cf	-0.06681978
14	0x3ca5d264	0.020241924
15	0x3ca40db7	0.020026071
16	0x3b837324	0.0040115286
17	0x3b2fcceb	0.0026825021
18	0x3d3bb9ad	0.04583137
19	0xbc93e65a	-0.018054176
20	0x3ca6dd74	0.020369269
21	0x3a0c3528	0.0005348497
22	0xbc4fc6aa	-0.012681643
23	0x3acce428	0.0015631961
24	0xbcc5ae21	-0.024130883
25	0xbc993dce	-0.018706229
26	0xbcfad51a	-0.030619193
27	0x3d121c71	0.035671655
28	0x3c8df649	0.017329352
29	0x3c4e438e	0.0125893485
30	0xbb9f34f7	-0.004858609
31	0xbd576d63	-0.052594554
32	0xbd3840cb	-0.044983666
33	0x3b3c17ef	0.002870079
34	0x3bb3a1db	0.005481941
35	0xbd6b8f61	-0.057509784
36	0xbd042437	-0.0322611
37	0xbca67da3	-0.02032358
38	0x3d3389b2	0.04383249
39	0x3cfaf650	0.03063503
40	0x3bdb4184	0.0066911597
41	0x3d4c6052	0.049896546
42	0xbc9c1010	-0.019050628
43	0xbd2cc1a3	-0.042176854
44	0x3c48922d	0.012241882
45	0xbd20fe83	-0.03930522
46	0xbc818058	-0.01580827
47	0x3ca62583	0.020281559
48	0xbd58ac18	-0.052898496
49	0x3bbbc251	0.0057299514
50	0xbc4e771e	-0.012601642
51	0xbd3de23b	-0.04635833
52	0xbcf57bea	-0.029966313
53	0x3c44edb3	0.012019563
54	0x3b26beb8	0.0025443267
55	0x3badf2c8	0.005308483
56	0x3c83bea8	0.016082123
57	0xbd80d377	-0.06290334
58	0x3d408874	0.04700513
59	0xbd30f493	-0.043201994
60	0xbc9759d1	-0.018475445
61	0x3cb6bc61	0.022306623
62	0x3c88dc09	0.016706483
63	0x3af68415	0.0018807674
64	0xbd520a5a	-0.051279403
65	0x3d668147	0.056275632
66	0x3a119ffb	0.000555515
67	0xbc80c12f	-0.015717117
68	0xbcc62958	-0.024189636
69	0xbd05bb2f	-0.032649215
70	0xbd356c44	-0.044292703
71	0xbce19034	-0.027534582
72	0xbd265d11	-0.0406161
73	0xbcc7b88f	-0.024379997
74	0x3c83085e	0.0159952
75	0xbccad4a2	-0.024759594
76	0x39a98186	0.00032330694
77	0xbcf40ddd	-0.029791767
78	0x3ce090f9	0.027412878
79	0xba82fbfe	-0.0009993312
80	0x3d2c0d85	0.04200508
81	0xbcab660a	-0.02092268
82	0xbcec5592	-0.028849397
83	0xbca2e5b3	-0.01988492
84	0x3c66e360	0.014092296
85	0xbab1a570	-0.0013553333
86	0x3cb2b47c	0.021814577
87	0xbd66beff	-0.05633449
88	0x3ca0b1f1	0.0196161
89	0xbd1ca232	-0.03824062
90	0x3c6f90f7	0.014621965
91	0x3d2d3b8f	0.042293128
92	0xbd5e2b64	-0.0542406
93	0xbca72a42	-0.020405892
94	0x3c9cbe57	0.01913373
95	0x3bd64cd6	0.0065399213
96	0xbc04f0a0	-0.00811401
97	0x3cc9c419	0.02462964
98	0xbc8db841	-0.017299773
99	0x3b45c8df	0.0030179543
100	0xbd159cb8	-0.03652641
101	0x3ce0a286	0.027421247
102	0x3d05ee3e	0.03269791
103	0xbc01479e	-0.00789061
104	0x3cd791d0	0.026314646
105	0x3d33fb33	0.043940734
106	0x3c7e1521	0.015507967
107	0xbcb9a2fe	-0.022660729
108	0x3b49e27c	0.0030805161
109	0x3d215fbb	0.039397936
110	0x3d309c86	0.043118022
111	0x3c457e3e	0.012054024
112	0xbaffbc6a	-0.0019511108
113	0x3cefd04e	0.029274132
114	0xbca523fe	-0.020158764
115	0x3c28df7e	0.010307191
116	0x3d3fe21d	0.046846498
117	0x3d278cf6	0.040905915
118	0xbd1eb063	-0.038742434
119	0xbd4c2c3e	-0.04984688
120	0xbd19fbde	-0.037593715
121	0xbd67164b	-0.056417745
122	0xbc6afbdf	-0.014342277
123	0x3d1488de	0.03626334
124	0x3c8797ad	0.016551817
125	0xbd040367	-0.032229807
126	0xbd099bcd	-0.03359585
127	0x3cdab400	0.026697159
128	0x3c731b2e	0.014838023
129	0xbcb99efc	-0.022658817
130	0xbb6b47e2	-0.0035901
131	0xbd9ae348	-0.07562882
132	0x3c24ecde	0.010066239
133	0x3ccfd827	0.025371624
134	0x3d738f0d	0.059462596
135	0x3b066c47	0.0020511316
136	0xbce1ee63	-0.027579492
137	0x3c805095	0.015663425
138	0xbc856535	-0.01628361
139	0x3c244eaf	0.010028525
140	0xbd0dfbbf	-0.034663912
141	0x3c7770f3	0.015102613
142	0x3aa89d76	0.001286431
143	0xbc2376d3	-0.00997706
144	0x3bb310b5	0.005464638
145	0xbcc62123	-0.024185723
146	0x3c42cd77	0.011889807
147	0xbd1c9db6	-0.038236342
148	0xbcf74fb3	-0.03018937
149	0x3c72e976	0.014826169
150	0x3ccc7589	0.024958389
151	0xbd83b2e3	-0.06430604
152	0x3d7bf2ba	0.06151078
153	0x3d1edbea	0.038783945
154	0xbc808f61	-0.015693368
155	0xbcbc6cb2	-0.023001049
156	0x3c30a68e	0.010781897
157	0x3c8e1a4a	0.01734652
158	0x3d58116a	0.052750982
159	0x3d5a01aa	0.053224243
160	0xbd72e684	-0.059301868
161	0x3c9f984a	0.019481797
162	0x3d240178	0.040040463
163	0xbba9a574	-0.0051771943
164	0xbc5515f1	-0.0130057195
165	0xbcd9a4b8	-0.026567802
166	0x3b82e259	0.003994268
167	0x3c8378dd	0.016048843
168	0xbc86c314	-0.016450442
169	0xbc83d19f	-0.016091166
170	0xbd83729d	-0.06418345
171	0x3b26afed	0.002543445
172	0xbc57c69b	-0.01316991
173	0x3c09e5c6	0.008416599
174	0xbb8629c9	-0.0040943366
175	0x3c69a969	0.014261582
176	0x3c9973e5	0.01873202
177	0xbd66b616	-0.056325994
178	0x3cf375e1	0.029719295
179	0xbd4915b9	-0.049092982
180	0x3d105ddd	0.035245765
181	0xbc8a8f0b	-0.016913911
182	0xbca70218	-0.02038674
183	0xbd40ddae	-0.04708641
184	0xbb49f78b	-0.0030817713
185	0xbd167dbe	-0.03674101
186	0xbb3e1ed8	-0.0029010084
187	0xbd047b79	-0.032344315
188	0x3b37247a	0.0027945326
189	0x3c656f1d	0.014003542
190	0x3d1538a5	0.036430974
191	0x3c02a496	0.007973811
192	0xbca1b0a2	-0.019737545
193	0x3c846eb2	0.016166065
194	0x3c94210b	0.018082162
195	0xbc17a7d3	-0.009256321
196	0x3b88410d	0.0041581453
197	0x3ce79091	0.028267177
198	0xbc9ba1c2	-0.01899803
199	0x3aed3514	0.0018097484
200	0xbbc40b4e	-0.005982793
201	0xbbf903f4	-0.007599348
202	0x3d122299	0.035677526
203	0x3ca21485	0.019785175
204	0x3cdc9bf9	0.026929842
205	0xbd45e16b	-0.04831068
206	0xbd01d356	-0.031695686
207	0x3d1a5c09	0.037685428
208	0xbc272023	-0.010200533
209	0xbd51daa8	-0.051233917
210	0x3cf2f6dd	0.02965873
211	0x3be597b0	0.007006608
212	0x3cae2a81	0.021260502
213	0xbbb4673d	-0.005505471
214	0xbc71018e	-0.014709843
215	0x3c2d104e	0.010562969
216	0x3bf25595	0.007395456
217	0xbc3820ba	-0.011238271
218	0x3cd2dbec	0.025739633
219	0xbb7fb3a0	-0.0039016977
220	0x3d0a16ab	0.033713024
221	0x3bbea779	0.005818304
222	0xbca2ab79	-0.019857155
223	0x3c3a3d53	0.01136716
224	0x3cb9f581	0.022700073
225	0x3c814c82	0.015783552
226	0x3cb70962	0.022343341
227	0x3d157db6	0.03649684
228	0xbd589f61	-0.05288637
229	0x3d001df0	0.03127855
230	0x3c98ae2e	0.018637743
231	0xbcedae49	-0.02901377
232	0xbd2a35db	-0.041555267
233	0x3d22d5c3	0.03975464
234	0x3c364cf2	0.011126744
235	0x3c64ffd8	0.0139770135
236	0x3cf9ed82	0.03050876
237	0xbd140075	-0.03613325
238	0x3d34757a	0.044057347
239	0xbd642fff	-0.055709835
240	0xbcd0ab50	-0.025472313
241	0xbd324510	-0.043522894
242	0x3c1c2e55	0.009532531
243	0x3cc53087	0.024070991
244	0xbd4494e5	-0.04799356
245	0xbca6bd3b	-0.020353904
246	0xba8443e7	-0.0010091037
247	0xbd190426	-0.037357472
248	0xbaec6816	-0.0018036391
249	0x3cf28100	0.029602528
250	0x3ccecbbe	0.025243636
251	0x3c9b8628	0.01898487
252	0x3b76185d	0.0037551143
253	0xbc3d95cc	-0.011571359
254	0xbd34c340	-0.044131517
255	0xbd2b50c5	-0.041825075
