package/model/policy.tflite (tflite, 40316 bytes, 3 tensors)

ActorDistributionNetwork/EncodingNetwork/dense/MatMul1 f4 [32, 24]
000000 38 74 7f be 78 ee bc bd c0 3c 05 bd 5c be 3b 3e
       -0.24946678 -0.09225172 -0.03252864 0.18334335
000010 30 56 e7 3d 54 59 85 bd 46 7a 2b 3e b0 c3 a7 3d
       0.11295736 -0.065111786 0.16745862 0.08191621
000020 d4 49 4e 3e bf 2c a4 be 9c 9b 51 3e dc 0a b9 3d
       0.2014535 -0.3206539 0.20469517 0.090352744
000030 70 6d ea bc d0 bc fc 3d 00 20 c0 38 e8 ae 3e be
       -0.028616637 0.123407006 9.161234e-05 -0.18621409
000040 92 aa 1f 3e 7a ad 1d be e0 e5 0e 3d 88 16 87 bd
       0.15592411 -0.15398207 0.034887195 -0.06596094
000050 ae d2 9a 3e dc 32 b0 3d 90 f2 39 3e 1c 7f 83 be
       0.3023886 0.08603451 0.18158937 -0.25682914
000060 f2 14 71 be 84 a3 31 be b8 a3 e0 3d fa 9f d2 bd
       -0.23543146 -0.17347533 0.10968727 -0.10284419
000070 40 0a 3e 3d c0 cd 7b bc c1 bd 7c be e5 7a a2 be
       0.046396494 -0.015368879 -0.2468176 -0.31734386
000080 c8 fb 65 3d f2 0d a4 be ae 42 7a be 36 64 95 3e
       0.05614832 -0.3204189 -0.24439499 0.29178017
000090 a4 d7 9e 3e 7a 01 2e 3e 40 11 a5 be 35 ce 3e be
       0.31023896 0.16992751 -0.32239723 -0.18633349
0000a0 d8 b9 0d 3e 00 64 89 b9 f8 e9 a1 be b8 b1 0c 3e
       0.13840425 -0.00026205182 -0.31623816 0.1373967
0000b0 c0 0a be 3d da ee ae bd dd 87 a3 be 8d 7c 4b be
       0.09279394 -0.08541651 -0.31939593 -0.19871731
0000c0 94 5b a1 3d 61 b0 15 be 8e 4a 86 3e 40 ff 7b bc
       0.07878795 -0.14618064 0.26228756 -0.015380681
0000d0 08 56 77 3d 2e 39 0c 3e 6e 55 81 3e 38 b5 20 3d
       0.06038478 0.13693687 0.2526049 0.039235324
0000e0 3c 2a d7 3d e0 92 8f bd a1 d0 0c be c2 15 44 be
       0.105061024 -0.07010436 -0.1375146 -0.19148925
0000f0 80 6e 0d 3e 38 91 43 3d b0 05 80 3d 78 ad 8f 3d
       0.13811684 0.047745913 0.06251085 0.070155084
000100 4e 1d 85 3e 8c 64 fb 3d ce 22 03 be 50 65 0e 3d
       0.2599892 0.12275037 -0.12806246 0.034764588
000110 38 8c af bd 63 88 a3 be cc f7 13 3e f2 4a d9 bd
       -0.085716665 -0.31939992 0.14449996 -0.10609998
000120 89 07 05 be 58 6e a3 bd 8c 8a 44 3e 04 da 80 be
       -0.12991156 -0.07980031 0.19193476 -0.25166333
000130 5c 25 28 3e de 3c ec bd 8c bf 9b 3e f6 93 91 3e
       0.16420501 -0.11535047 0.30419576 0.28433198
000140 d0 d7 a6 3d b0 06 9c 3e 40 06 6d 3e 5e 5b 1e be
       0.08146632 0.30473852 0.23146915 -0.15464541
000150 5b 99 70 be f2 fc 24 3e d6 c1 2f 3e 8a d5 9f 3e
       -0.23496 0.16112116 0.17163786 0.31217605
000160 8c 63 2b 3e 08 27 67 bd 38 f6 8b 3e 6a 24 ea bd
       0.16737193 -0.056433707 0.27336287 -0.11432727
000170 1c 63 a4 3e f0 50 70 be 20 2f b8 bc 4a 9e 83 3e
       0.32106864 -0.23468375 -0.022483408 0.25706702
000180 dc a2 d0 bd 54 cc 7b 3e 40 1c 60 bc 97 44 a3 be
       -0.10187313 0.24589664 -0.01367861 -0.31888267
000190 20 ff 07 bd f8 da 63 be e0 aa 18 3c 8b 95 25 be
       -0.03320229 -0.22251499 0.0093180835 -0.16170327
0001a0 9c cb 31 3e 52 67 98 3e 3e fa 81 3e c4 71 a1 3e
       0.17362827 0.29766327 0.25386232 0.3153211
0001b0 30 65 5e bd d7 39 85 be 26 d7 40 be 90 c1 d8 3c
       -0.05429572 -0.2602069 -0.18832073 0.026459485
0001c0 45 e7 9d be b0 34 48 bd f9 3f 96 be c0 86 32 3e
       -0.30840507 -0.04887837 -0.29345682 0.17434216
0001d0 54 95 49 3e e4 e8 e5 3d 18 a9 89 3e 60 a7 34 3e
       0.1968587 0.11226061 0.2688682 0.17641973
0001e0 99 08 2a be 94 da 09 be c2 68 9e be 44 57 74 3e
       -0.16604842 -0.13462287 -0.309393 0.23861414
0001f0 1c e7 2d 3e aa 56 78 be 20 f0 a6 bc 88 f1 3f 3e
       0.16982692 -0.2425181 -0.020378172 0.1874448
000200 90 b9 8d 3e 2c 0a 78 3e ba 15 1c 3e 86 e6 74 be
       0.27680635 0.2422263 0.15242663 -0.23916063
000210 00 33 9b 3e 80 78 7e bd 8f 6e 70 be 6f f0 19 be
       0.30312347 -0.062126637 -0.23479675 -0.15033124
000220 cb 91 97 be 74 72 ac 3d 50 f6 d2 bd d0 03 09 be
       -0.2960342 0.08420268 -0.10300887 -0.1338036
000230 4a 5d 64 be c6 4b 33 be 50 e7 8a be 10 78 64 3d
       -0.22301212 -0.17509374 -0.27129602 0.055778563
000240 60 66 a4 be 98 06 28 bd c0 01 39 3d 9e 00 2c 3e
       -0.32109356 -0.041021913 0.045167685 0.1679711
000250 8a c2 01 3e 7a b7 11 be 20 ce 39 3c b7 7d 16 be
       0.12671867 -0.14230147 0.011340648 -0.14696394
000260 03 03 84 be 74 92 23 be cf c3 0d be 02 d2 7c be
       -0.25783548 -0.15973836 -0.13844226 -0.24689487
000270 1d cf 31 be b0 16 91 3e a0 ae 27 3e 7a 05 83 be
       -0.17364164 0.28337622 0.16375208 -0.25590116
000280 66 ba 20 3e 8c cc 84 3e 04 c2 6b 3e 28 f9 16 be
       0.15696105 0.25937307 0.2302323 -0.14743483
000290 a8 38 88 3e 21 fd 1e be ae 84 15 be 42 04 86 3e
       0.26605725 -0.15526249 -0.14601395 0.26175123
0002a0 44 f1 55 3e 98 f5 39 bd 88 b6 1b 3d 02 91 98 be
       0.20892817 -0.045400232 0.038015872 -0.29798132
0002b0 c4 19 68 3e e8 a1 a0 be 98 46 7e bd a8 93 54 3e
       0.22666079 -0.31373525 -0.062079042 0.20759451
0002c0 7e 42 bf bd 74 f2 8f 3d 05 f9 82 be ba 4f 83 3e
       -0.09338854 0.07028666 -0.25580612 0.25646764
0002d0 fe 28 21 3e b4 b5 8c bd f8 ca 67 3d c0 b8 92 bb
       0.15738294 -0.068705946 0.05659005 -0.0044775903
0002e0 d8 7b f5 bd 38 ca 03 bd 20 ab 30 bc c0 b2 7f bd
       -0.11986512 -0.032175273 -0.010782987 -0.06242633
0002f0 00 f6 3c 3e c8 43 5c 3e 49 80 48 be 70 01 c8 3c
       0.18453217 0.21510231 -0.19580187 0.024414748
000300 ec 5f dc bd 78 d0 7b bd 80 bb b5 3d 9c b0 56 be
       -0.10760483 -0.06147811 0.088736534 -0.20965809
000310 87 a3 09 be 80 cd 83 3b 5a 4c a3 be 65 49 98 be
       -0.13441287 0.0040223002 -0.3189419 -0.29743496
000320 56 d7 88 be 80 7b 32 3c 8e bb 0a be b8 da 32 bd
       -0.26726788 0.0108937025 -0.13548109 -0.043665618
000330 b8 c2 46 3d 30 fd 99 be e9 3f 18 be 32 02 7e be
       0.048525542 -0.3007598 -0.1486813 -0.24805525
000340 ce c6 29 3e d0 5c 1c bd d8 5a 3e 3e bb b2 93 be
       0.16579744 -0.03817445 0.18589342 -0.28847298
000350 c6 d4 98 3e 10 5a 5e bd 1c b4 84 3e fc aa 9b 3d
       0.29849833 -0.05428511 0.25918663 0.07600972
000360 95 24 9d be 18 e6 2f 3d b0 e7 9b 3e dc 1e 53 be
       -0.30691972 0.042944044 0.304502 -0.2061724
000370 b8 8e 60 3e a6 06 8c 3e fd 40 21 be 0c d1 87 be
       0.21929443 0.27348822 -0.15747447 -0.26526678
000380 06 a5 a0 3e 8b de 9f be 28 6f d9 3d 38 14 5b be
       0.31375903 -0.31224474 0.106169045 -0.21394432
000390 4f eb 1c be 10 7f 6c 3e ca 9c 98 3e db a3 7e be
       -0.15324138 0.23095345 0.2980712 -0.24867193
0003a0 30 59 24 3d d0 13 a1 3c dc f0 09 be f4 99 07 be
       0.04012412 0.019662768 -0.13470787 -0.13242322
0003b0 3c af 99 3e e0 e5 6e 3e e0 61 bb 3d ac 56 ff 3d
       0.30016506 0.23329878 0.091495275 0.12467703
0003c0 94 43 84 3e b9 0b 1c be 8c 9e 95 be 04 0e 9e 3d
       0.25832808 -0.15238847 -0.29222524 0.07717517
0003d0 68 4b 93 be 00 5f c6 3d 34 15 8f 3e 28 e9 45 3e
       -0.28768468 0.096860886 0.27945864 0.19327223
0003e0 1d 93 16 be 80 23 0c 3d de 1f a6 3e 58 58 0a 3d
       -0.14704557 0.034213543 0.32446188 0.033775657
0003f0 12 47 18 be 0c 38 9d 3e fe 78 4f be 9c 20 33 3e
       -0.14870861 0.30706823 -0.20260999 0.17492908

ActorDistributionNetwork/EncodingNetwork/dense_1/MatMul f4 [32, 32]
000000 ec 3c b0 bd cc f2 1b 3e f0 bd e6 3d d3 0e 9b be
       -0.0860537 0.15229338 0.112666965 -0.30284747
000010 aa 00 98 be 08 d2 85 3d 30 ec c5 bc 75 40 9a be
       -0.29688007 0.06534201 -0.024160475 -0.30127302
000020 00 30 b3 ba f4 39 8c be c6 4c 21 be c0 c4 3b bc
       -0.0013670921 -0.27387965 -0.15751943 -0.011460483
000030 80 44 de 3b 2e bf 9a be 28 4c 80 be 88 fc fa bd
       0.006783068 -0.30223984 -0.25058103 -0.12255198
000040 1e 96 4d 3e 23 97 83 be c4 e7 44 be b6 8e 4e 3e
       0.20076796 -0.25701246 -0.19229037 0.20171627
000050 a6 52 51 be 41 96 99 3e 9a ec db bd a0 b5 21 3e
       -0.20441684 0.29997447 -0.107384875 0.1579194
000060 60 e8 7f 3d 3c fa 80 be b6 78 4b 3e 84 7e 85 3d
       0.06247747 -0.25190914 0.19870266 0.065182716
000070 5b 82 9b 3e 80 78 b1 3c 9d 62 33 be 60 8a b9 bc
       0.3037289 0.021663904 -0.17518087 -0.02264899
000080 b5 16 79 be 60 f2 55 3d 18 07 10 bd 76 b9 6b 3e
       -0.24325068 0.0522331 -0.035163015 0.23019966
000090 94 07 8a bd ea a2 65 3e 2a 04 cb bd 33 7c 8f 3e
       -0.06739727 0.22425428 -0.099129036 0.28024444
0000a0 a5 d0 91 be 7f 06 95 3e bc 9a d7 3d 5c da 84 bd
       -0.28479496 0.2910652 0.1052756 -0.06486961
0000b0 34 cc e0 bd 10 71 93 3d b2 7f ec bd d1 3e 96 3e
       -0.10976449 0.07199299 -0.115477934 0.293448
0000c0 0a e4 45 3e ec 44 92 be d8 75 06 bd e2 28 8f bd
       0.19325271 -0.28568208 -0.03282723 -0.0699022
0000d0 de 91 6f be a0 b1 54 3d d6 49 73 3e ac cf 31 3e
       -0.23395488 0.05192721 0.23758635 0.17364377
0000e0 fe 36 7b 3e 98 24 40 3d 96 4e 9a be 20 e7 bf bc
       0.24532697 0.0469099 -0.3013808 -0.023425639
0000f0 40 8e 91 3d 33 1e 95 3e 1c 3b 6a be c6 48 70 be
       0.0710721 0.29124603 -0.22874111 -0.23465261
000100 c0 03 8a 3c dc cf 0a 3e e9 67 88 3e 40 75 d4 3c
       0.016847491 0.13555855 0.26641777 0.025934815
000110 6a 38 3c 3e 98 6a 4c bd a0 2b 2b 3d fa 43 92 bd
       0.18380895 -0.049906343 0.04178965 -0.07141872
000120 e0 fb 06 3c 36 90 21 be 3e db 0c 3e 5e 3e 23 3e
       0.008238763 -0.15777668 0.1375551 0.1594176
000130 f6 22 6a 3e 26 0a 69 be 96 aa 67 3e 54 73 ff 3d
       0.22864899 -0.22757778 0.22623667 0.12473169
000140 d6 6c a4 bd fc 25 0e 3e 19 1c 8a 3e 62 10 0e 3e
       -0.08028571 0.13881677 0.26974562 0.13873437
000150 59 62 96 3e 40 35 cd bd 40 6b 9f 3d 38 c1 12 bd
       0.29371908 -0.10019922 0.07784128 -0.0358288
000160 00 28 61 be fa ca 6a be 22 42 d7 bd 9e be 21 3e
       -0.21987915 -0.22928992 -0.10510661 0.15795371
000170 94 3e 82 3d 06 26 4e 3e 60 12 50 be be f9 68 3e
       0.06359592 0.20131692 -0.2031951 0.22751519
000180 18 6a e6 3d 2b 2e 2c be a8 96 07 3d 83 c7 36 be
       0.112507045 -0.16814487 0.03310266 -0.17849545
000190 e1 5e 40 be 44 0e 89 3d c8 fc 3c bd 62 8e 20 be
       -0.18786193 0.06692174 -0.04613951 -0.15679315
0001a0 8e 5e 6e be 8a 7b 49 be 6b 12 97 3e 60 dc 4b 3d
       -0.23278257 -0.19676033 0.2950624 0.049770713
0001b0 f2 31 29 be 58 21 0f 3e 2e 79 6b 3e e2 5a 7e 3e
       -0.16522959 0.13977563 0.22995445 0.24839357
0001c0 96 c9 62 3e 04 81 34 3e 90 38 b6 bc 77 9f 5b be
       0.22147211 0.1762734 -0.022243768 -0.2144755
0001d0 eb 9f 79 be a3 f3 8b be 3b 0d 92 3e a8 e7 4f 3d
       -0.2437741 -0.27334318 0.2852572 0.050758034
0001e0 0e 5f 6a 3e dc 1b 42 3e dc 7e 98 bd 76 e0 0f 3e
       0.22887823 0.1895594 -0.074460715 0.14050469
0001f0 e7 4b 90 3e e0 ee 7f bd 2e 15 7d 3e 54 13 92 bd
       0.2818291 -0.06248367 0.2471511 -0.07132593
000200 3c d9 06 be b8 dd 23 3d 28 ab a1 bd aa bd 94 be
       -0.13168806 0.04000637 -0.078939736 -0.29050952
000210 64 89 b7 3d a0 34 e4 3c 12 7e 36 3e 20 74 9a bc
       0.08961752 0.027857125 0.1782153 -0.0188542
000220 14 09 a6 bd dc 54 26 3e b8 af 8f bd 24 ca d9 3d
       -0.081072 0.16243309 -0.070159376 0.106342584
000230 0c 9e ec bd 41 98 90 3e b6 6f 28 be 94 b3 2b 3e
       -0.115535825 0.2824116 -0.16448864 0.16767722
000240 3e 23 59 3e 00 a6 f1 3c 48 fa 1b bd 3a e7 5f 3e
       0.2120485 0.0294981 -0.038080484 0.2186555
000250 fa dc 3f be bf b2 93 3e 1f e3 28 be ec a7 84 bd
       -0.1873664 0.2884731 -0.1649289 -0.06477341
000260 5c ce 5a be 20 2b 2e bc 09 16 8e be b3 50 2d be
       -0.21367782 -0.010630399 -0.27751186 -0.16925316
000270 4d 23 99 be 44 f5 fb bd 83 71 98 be c0 dd 3c be
       -0.29909745 -0.1230264 -0.29774103 -0.18443966
000280 70 47 e9 3d ba 7e 83 be 60 81 e3 bc 00 5d df 3b
       0.11390579 -0.25682622 -0.027771652 0.0068165064
000290 92 53 2b be 7a fb 01 3e 4c 5b 02 3e e8 4c 06 be
       -0.16731098 0.12693587 0.1273014 -0.13115275
0002a0 20 b1 3b 3d 32 57 2a be e0 77 aa 3d 6f 79 00 be
       0.045823216 -0.16634825 0.083236456 -0.12546323
0002b0 e9 1b 90 3e 50 a2 1b be a3 13 7e be 20 78 a4 3c
       0.28146294 -0.15198636 -0.24812178 0.020076811
0002c0 80 63 95 be 80 a5 1a 3e 30 b1 2b 3d cc 05 ff bd
       -0.29177475 0.15102196 0.041917026 -0.124522775
0002d0 9f d6 67 be 94 5b 17 3e 7a 1f 36 be 80 a1 a2 bc
       -0.22640465 0.14781028 -0.17785445 -0.0198524
0002e0 87 86 81 3e 6e 6d 93 bd 56 47 58 3e 48 7b 7d 3d
       0.2529795 -0.071986064 0.21120963 0.06188515
0002f0 2b ec 2d be 3d 54 87 3e 7a 0c 65 3e 5e 71 33 3e
       -0.16984622 0.26431456 0.2236804 0.17523715
000300 f1 d7 4e be 62 d3 7a 3e 2f 8a 8b be 8e 22 fd bd
       -0.20199563 0.24494699 -0.27253863 -0.123601064
000310 bb 17 97 be 92 cc 76 be de d2 46 be e4 29 0e 3e
       -0.29510292 -0.24101475 -0.19416377 0.13883168
000320 cf 64 8b 3e b8 2e 09 be c0 0f 74 bc d0 e5 be 3d
       0.27225348 -0.13396728 -0.014896333 0.09321177
000330 d1 1c 06 be f8 02 38 3d 3b 0d 3f be 23 a5 8b 3e
       -0.1309693 0.044924706 -0.18657391 0.27274427
000340 ea 97 22 be ec 3d 04 be 05 e6 3e be 20 f8 1e 3c
       -0.15878263 -0.12914246 -0.18642433 0.009702712
000350 96 50 07 3e 40 52 be bb d2 f4 4e be f6 a0 90 bd
       0.13214335 -0.005808145 -0.20210579 -0.07061951
000360 48 fc 4e be ca d8 51 3e e0 6b 07 3e 36 6f 95 bd
       -0.20213425 0.20492855 0.13224745 -0.072966024
000370 80 1f f6 3b a0 17 f6 3c df 98 85 3e 77 4e 8a 3e
       0.0075110793 0.030040562 0.26093194 0.2701299
000380 00 d4 f7 ba c5 d4 8c 3e 85 94 8c 3e 2b c3 9b be
       -0.0018907785 0.2750608 0.2745706 -0.3042234
000390 c5 d4 91 be e4 68 5f be 4a 64 97 be e2 9c 83 bd
       -0.28482643 -0.21817356 -0.29568702 -0.064264074
0003a0 0a 40 6f 3e 3a 9b 6f 3e 7e a5 3a be 19 bc 1c be
       0.23364273 0.23399058 -0.18227193 -0.15306129
0003b0 e5 c1 82 3e 40 96 73 be 28 08 83 be 30 93 4e bd
       0.25538555 -0.23787785 -0.2559216 -0.050433338
0003c0 a2 7b 1b 3e 90 64 82 bc d3 aa 2c be b1 89 96 3e
       0.15183881 -0.015917093 -0.1686204 0.29401925
0003d0 1a e7 5b 3e aa f7 68 3e 5a 18 e0 bd 44 5e a9 3d
       0.21474877 0.22750726 -0.10942145 0.08269933
0003e0 87 b2 99 3e 80 e7 c8 3c 90 85 cf 3d 4a f6 83 bd
       0.30019018 0.02452445 0.10132897 -0.0644346
0003f0 9e e6 98 be 04 9e 6b be 4c 78 bc 3d a3 0b 94 3e
       -0.29863447 -0.23009497 0.09202632 0.28915128

ActorDistributionNetwork/TanhNormalProjectionNetwork/projection_layer/MatMul f4 [8, 32]
000000 46 fe c1 be 9a e0 99 3e ec f1 ab be 04 ac a4 3d
       -0.37889308 0.3005417 -0.3358301 0.08040622
000010 78 9e 47 be 00 89 1f 3e 59 2d 46 be 58 df 5b 3e
       -0.19494045 0.15579605 -0.19353236 0.21471918
000020 a8 7a 05 bd 70 ea ef 3d 6e e4 83 be bc 95 a3 be
       -0.032587677 0.11714637 -0.25760216 -0.31950176
000030 c7 55 b3 be f0 cc 44 3e b8 a7 13 3e ab d3 35 be
       -0.3502638 0.19218802 0.14419448 -0.17756526
000040 6c 2b c6 3e 60 85 5b 3d ce 9a 62 be 7d 4f c5 be
       0.38705003 0.053593993 -0.22129366 -0.38537207
000050 31 be c5 be b6 9b b6 3e 83 83 8a be ca 08 b3 be
       -0.38621667 0.35665673 -0.2705346 -0.34967643
000060 50 ee ca bd e0 f5 aa bc 5f 97 4c be 30 43 62 bd
       -0.09908736 -0.020869195 -0.19979618 -0.055239856
000070 70 a0 ce bc 40 17 95 3e 74 5d 32 3e 60 76 f2 3d
       -0.025222987 0.291193 0.17418462 0.118389845
000080 7c e3 aa 3d 5c a7 c4 bd 00 68 eb bc 34 25 1a 3e
       0.083441705 -0.09602234 -0.028736115 0.15053254
000090 24 44 b3 3d 94 c2 b9 bd f0 3d 80 bc 5e 75 47 be
       0.08753231 -0.09070316 -0.015654534 -0.19478366
0000a0 44 a7 7d 3e 94 0f 6b 3e ec 61 9d bd bc 60 89 be
       0.24770838 0.22955161 -0.07684693 -0.26831615
0000b0 8b 20 40 be c4 c3 3a 3e 20 56 42 3d d2 cd 9e 3e
       -0.18762414 0.18238741 0.047445416 0.31016403
0000c0 88 4c 2d 3d 00 76 8b bb d2 53 5f be d0 52 b5 bd
       0.042309314 -0.00425601 -0.21809319 -0.08853686
0000d0 3e ee 8c 3e 6c bc 38 3e 44 56 54 be 6e f5 22 be
       0.27525514 0.18040627 -0.20736033 -0.15913936
0000e0 24 14 03 3e 3c 47 31 be 2a 9c be 3e f4 9d a7 3d
       0.12800652 -0.1731233 0.3722852 0.08184424
0000f0 f5 a9 17 be da a1 a1 3e 30 6e b9 3d d0 4b 98 3e
       -0.14810927 0.31568795 0.0905422 0.2974534
000100 38 41 22 3e bc ae 90 3e 3c 66 1f 3e 40 f9 96 3e
       0.15845191 0.28258312 0.15566343 0.29487038
000110 59 48 c5 be cd 71 34 be 36 f0 c1 be 38 25 6e 3e
       -0.3853176 -0.17621537 -0.3787858 0.23256385
000120 88 1c 86 3e 9a f3 91 be 43 ae 9c be c8 5d ba 3d
       0.26193643 -0.28506166 -0.306017 0.090999186
000130 1c 0f e9 bd a0 69 63 3d 5c 0f 02 3e 96 03 99 be
       -0.11379835 0.055520654 0.12701172 -0.29885548
000140 70 b1 a0 3e 28 af 9c 3e 20 ba 71 bc 00 4d b5 be
       0.31385374 0.30602384 -0.014753848 -0.3541031
000150 8d 99 52 be c0 b4 35 3d c8 5e 0c 3e 2c ed bd 3e
       -0.20566387 0.04436183 0.13708031 0.3709501
000160 fc 10 3c be 44 ec 88 3e 20 ba 58 bd ec 84 91 3e
       -0.18365854 0.26742756 -0.052911878 0.28421724
000170 83 8a b6 be 74 e6 a7 be 10 c7 ef 3d d0 42 53 3d
       -0.3565255 -0.3279301 0.1170789 0.05157739
000180 56 f1 61 be d8 13 4f 3e 6f 5d 0f be 1c eb bd 3d
       -0.22064719 0.20222414 -0.14000486 0.09273359
000190 38 f9 61 3d 84 fa 90 3d 50 63 47 3e 78 88 6c 3e
       0.055169314 0.07079032 0.19471478 0.23098934
0001a0 a3 92 a3 be 8d eb c4 be f8 7f 5e bd 20 55 54 3e
       -0.31947812 -0.3846096 -0.05432126 0.20735598
0001b0 cc 04 dc 3d 08 40 1e 3e bc 15 92 be 88 25 ba 3d
       0.107431024 0.15454113 -0.28532207 0.0908919
0001c0 64 4b a4 3e 20 8e eb 3d 80 a3 e7 3d 3e 78 92 be
       0.32088768 0.115017176 0.11310482 -0.28607363
0001d0 78 b9 2d be a0 28 45 bd 7c d4 93 be c0 66 a5 3d
       -0.16965282 -0.048134446 -0.2887305 0.08076239
0001e0 d6 b0 81 3e 60 88 72 3d 90 a4 a4 bd de da b9 3e
       0.25330228 0.05921209 -0.080392 0.36299795
0001f0 64 f8 e2 bd c6 ea b4 3e 78 87 14 3e ea e0 93 be
       -0.11082533 0.35335368 0.14504802 -0.28882533
000200 18 90 3a 3d d5 48 b7 be c0 57 2f 3e a4 41 63 3e
       0.045547575 -0.35797754 0.17123318 0.22193009
000210 40 39 a4 bb 1b f5 70 be b0 e5 bc 3d bc 8f 43 3e
       -0.0050117075 -0.23531 0.09223497 0.19097799
000220 20 b1 30 3e a1 36 8f be ac 8b c6 bd d0 8c 82 3e
       0.17255068 -0.27971366 -0.09694609 0.25498056
000230 30 90 2c 3e c0 19 a1 3b 24 a4 a6 3d 00 48 75 3b
       0.16851878 0.0049163997 0.08136776 0.0037426949
000240 79 45 3e be b6 e5 ba 3e 3c 65 db bd 50 bc 7c bd
       -0.18581189 0.3650338 -0.10712668 -0.061703026
000250 34 19 82 be 0c 2a 1d 3e 94 e5 ae be 96 58 8b be
       -0.25409853 0.15348071 -0.3415953 -0.27216023
000260 fa 2a 8f 3e c4 01 43 3e db 7e 9c be 4a 2a a1 be
       0.27962476 0.19043642 -0.30565533 -0.31477576
000270 00 b7 00 3e 43 7e a2 be 14 c9 8f 3d 4e 25 bc be
       0.12569809 -0.31736955 0.070207745 -0.3674721
000280 9e a9 b3 be 28 c4 86 3d 6c e0 67 3e 48 2e 4c bd
       -0.35090345 0.065803826 0.22644204 -0.049848825
000290 49 c5 8e be a4 0d 01 3e 6b 73 82 be 2d 0a b2 be
       -0.27884892 0.1260286 -0.25478682 -0.34773389
0002a0 3c bf 9d be b0 4b c3 3e db fb 64 be 90 4f 9b 3e
       -0.30809963 0.38143682 -0.223617 0.3033414
0002b0 4f 8a 37 be ff c9 ba be 6e db 99 be 95 a4 8b be
       -0.17923854 -0.36482236 -0.30050224 -0.27274004
0002c0 cf 52 b8 be f0 31 21 3e 90 b4 af 3e 3c 04 90 bd
       -0.36000678 0.15741706 0.34317446 -0.07032058
0002d0 5f 09 2d be bc c9 6c be f4 07 aa be 70 f1 77 3e
       -0.16898106 -0.2312383 -0.33209193 0.24213195
0002e0 00 85 57 bc d8 4a 3e 3e 00 a8 9e bc 2e f4 9b 3e
       -0.013154268 0.18583238 -0.019367218 0.30459732
0002f0 f8 3b 12 3e 80 db 22 3c ac 2b 7d 3e 61 c1 ba be
       0.14280689 0.009940028 0.24723691 -0.3647566
000300 c8 e6 b7 3d e0 7b ac bc 7b 36 9f be b8 5e 55 be
       0.08979565 -0.021055162 -0.31096253 -0.20836914
000310 d0 44 c9 bc 30 d6 86 bc 11 a8 1c be f7 39 85 be
       -0.024568945 -0.016459554 -0.15298487 -0.26020786
000320 7c f5 51 3e 48 91 58 3e 44 27 7e 3e 24 14 21 be
       0.20503801 0.2114917 0.24819666 -0.1573034
000330 cb b0 4d be 12 e3 59 be 30 c8 72 bd 30 51 27 be
       -0.20086972 -0.21278027 -0.059272945 -0.16339564
000340 34 39 a6 3d f8 81 b6 3e 00 c0 ba 3b 82 a1 a2 be
       0.081163794 0.35646033 0.0056991577 -0.31763846
000350 48 b9 fc 3d d0 a1 75 3e 6e d4 9d 3e 20 7a aa 3c
       0.12340027 0.23987508 0.30826133 0.020810187
000360 8e c1 a4 be b8 95 f8 3d b8 77 f0 bd a8 60 b8 3e
       -0.3217892 0.121379316 -0.117415845 0.36011243
000370 00 93 f2 bc 08 78 97 be 36 31 04 be a0 ea aa bc
       -0.02961111 -0.29583764 -0.12909397 -0.020863831
000380 d0 e2 05 be 29 43 a7 be f0 fa 99 3d 76 9c b4 3e
       -0.13074803 -0.32668427 0.07518566 0.3527562
000390 11 fc c3 be 2e c6 9a 3e 06 52 a1 be 12 62 8a 3e
       -0.3827825 0.30229324 -0.3150789 0.27027947
0003a0 ba df c2 3e 6c fb 14 3e 2a 74 b8 be 47 a6 ab be
       0.38061315 0.14549035 -0.36026126 -0.33525297
0003b0 60 d5 a6 3e 08 cc 4f 3e 38 2d ac 3d 98 4a 18 3e
       0.32584667 0.20292675 0.08407062 0.14872205
0003c0 a4 c5 5a be 78 d0 3f be fc 10 e6 bd 3c 06 63 3e
       -0.21364456 -0.18731868 -0.11233708 0.22170347
0003d0 4c ae 4c 3e 3c c9 e2 bd 59 0e b7 be 48 f9 15 3d
       0.19988364 -0.11073539 -0.35753134 0.036614686
0003e0 40 28 e4 bc 20 9d c5 bc 10 7d dd bd 0c bb 97 3e
       -0.027851224 -0.024122775 -0.108148694 0.29634893
0003f0 da 5f ba 3e 68 28 9c 3e e7 1c 7d be 60 5f 0a be
       0.36401254 0.30499578 -0.24718057 -0.13512945
