package/envs/policy.tflite (tflite, 56700 bytes, 3 tensors)

ActorDistributionNetwork/EncodingNetwork/dense/MatMul1 f4 [64, 24]
000000 30 d4 4e be b1 ab 0f be ac 0e bf 3d 14 0b b4 3d
       -0.2019813 -0.14030339 0.0932897 0.087911755
000010 89 56 53 be 32 02 11 be 54 0c 03 3e 00 30 ec bd
       -0.2063848 -0.14160994 0.12797672 -0.11532593
000020 e4 9d b4 3d 72 1a 76 3e d5 8f 4d be 40 9c d7 bc
       0.08819178 0.24033526 -0.20074399 -0.026319623
000030 20 b1 27 3d e0 b3 ff bd b2 94 57 be a6 5c 79 3e
       0.040940404 -0.1248548 -0.21052817 0.24351749
000040 66 55 82 be 62 d6 15 be 00 05 fc ba 30 a7 69 3e
       -0.2545578 -0.14632562 -0.0019227564 0.22817683
000050 6c 30 26 bd 8c fb db bd a4 3c 21 be b1 76 84 3e
       -0.040573522 -0.10741338 -0.15745789 0.25871804
000060 54 5a fd bd a4 f6 ed bd 5a e2 6f 3e 48 60 eb 3d
       -0.12370744 -0.116193086 0.2342619 0.114929736
000070 32 74 7d be 4e ba 14 be 8c 31 d5 3d dc 94 aa 3d
       -0.24751356 -0.14524195 0.10409841 0.08329174
000080 20 8b 86 bd e4 ef bb 3d 39 b6 6b be 80 5d 7e 3d
       -0.06569505 0.09176615 -0.23018731 0.062100887
000090 b2 5f 84 bd ba 7c 04 3e c8 e9 a2 bd 80 92 e5 3d
       -0.06463565 0.12938204 -0.079547465 0.11209583
0000a0 32 94 6f be e0 b7 ae 3d 70 3c b8 bc 31 b6 2d be
       -0.23396376 0.08531165 -0.022489756 -0.16964032
0000b0 10 40 f7 bc 04 2d e5 3d e5 68 09 be f8 8d e4 3d
       -0.030181915 0.11190227 -0.1341892 0.11159891
0000c0 64 fd 58 bd 6a 54 21 3e 40 f3 96 bd ef 39 7b be
       -0.052976027 0.15754858 -0.07370615 -0.24533819
0000d0 ac f9 08 3e d6 5b 1c be 00 9f fe 3b ec 19 87 bd
       0.13376492 -0.15269408 0.007770419 -0.06596741
0000e0 6c ca 36 3e 3d 2b 11 be 90 85 94 bc 20 aa 65 3e
       0.17850655 -0.1417665 -0.018130094 0.22428179
0000f0 78 c5 df 3d e0 b8 3c 3d 90 5a 1c 3e 18 63 04 bd
       0.10926336 0.046074748 0.15268922 -0.032321066
000100 10 6d 56 be 6e 98 77 3e 80 14 07 3d 3c 0f b2 bd
       -0.20940042 0.24179241 0.032978535 -0.08694312
000110 a8 8d 84 3d d4 9a 58 bd 04 8b 8f 3d ed 0f 2b be
       0.06472331 -0.05288203 0.07008937 -0.16705294
000120 b8 20 37 3d 3c 60 73 3e c8 03 8e bc ba cd 52 be
       0.044708937 0.23767179 -0.017335787 -0.20586291
000130 ec 0c 3e bd f2 44 9b bd 90 5e c8 3d 44 35 9d 3d
       -0.046399042 -0.0758151 0.09783661 0.07676175
000140 9c 05 99 3d 0e 42 85 bd a0 8a 01 bc b0 d6 7b 3d
       0.07471773 -0.065067396 -0.007906586 0.06148404
000150 88 02 53 bd 20 a4 61 3e 85 5e 81 be 8e 93 f8 bd
       -0.051516086 0.22035265 -0.25267425 -0.12137519
000160 67 6a 29 be 84 47 22 3e b0 22 1b be 66 83 0b be
       -0.16544496 0.15847594 -0.15149951 -0.13624343
000170 1e 6a 7e 3e 1c a7 84 bd f4 44 89 3d b3 f9 82 3e
       0.24845168 -0.06477186 0.06702605 0.2558113
000180 e2 4d 98 bd e0 06 1d 3d 52 c9 27 3e 80 f1 87 bb
       -0.0743673 0.038336635 0.16385391 -0.004148662
000190 56 ce 59 3e f0 05 99 bd d3 0c 81 3e 98 95 4a 3d
       0.21270117 -0.074718356 0.25205097 0.04945907
0001a0 22 ce 31 3e b4 53 7f be 3e 35 40 3e 42 2b fa bd
       0.1736379 -0.24934274 0.1877031 -0.12215282
0001b0 4d bd 53 be b0 f8 fd bc 02 fe 3c be f4 b2 81 bd
       -0.20677681 -0.031002373 -0.18456271 -0.06332961
0001c0 34 8b 40 be 4c 53 49 3e 4c 04 2a 3e 94 e3 7b be
       -0.18803102 0.19660681 0.16603202 -0.24598533
0001d0 8c 4e 41 be 50 14 29 be 50 5a 8e 3c 6e f5 bc bd
       -0.1887762 -0.16511655 0.017377049 -0.092264995
0001e0 0e c4 5b 3e cc 09 7e bd 30 12 50 3d 2c 94 80 be
       0.21461508 -0.06202106 0.050798595 -0.25113046
0001f0 98 17 f0 3d e0 a1 b4 3c 40 52 ef 3d 26 88 0d be
       0.1172325 0.022049844 0.1168561 -0.13821468
000200 0e dc 46 3e f0 1f 59 3d 59 9d 57 be b7 e5 00 be
       0.19419882 0.053008974 -0.21056117 -0.1258763
000210 6e d8 2f 3e 5c 0c 43 3e f8 ea 30 3d 96 95 31 be
       0.17172405 0.19047683 0.043192834 -0.17342219
000220 92 25 22 be 0c 85 36 3e 90 dd 55 3e 54 56 61 3e
       -0.15834644 0.17824191 0.208853 0.22005588
000230 98 77 6e bd a0 55 73 3e e2 87 74 be d0 29 1c 3e
       -0.058219522 0.23763132 -0.2387996 0.15250325
000240 20 03 fd bc 6e 17 ba bd 42 cf 31 be 8c ca f9 3d
       -0.03088528 -0.090865 -0.17364219 0.12196836
000250 00 a0 91 bb d8 d8 3d 3e 40 7b 20 be b5 17 84 3e
       -0.0044441223 0.1853975 -0.15672016 0.25799337
000260 d0 a2 93 3d 76 55 6b be fa 98 a9 bd 80 96 a2 bb
       0.072087884 -0.2298182 -0.08281131 -0.0049617887
000270 00 46 a6 bd f8 6e 1b 3e a0 ce d7 bc 4a 49 4c be
       -0.0811882 0.1517905 -0.026343644 -0.19949833
000280 d0 a1 5f bc c8 65 1a 3d cc af e3 3d 58 ff cd 3d
       -0.013649419 0.037694722 0.11117515 0.100584686
000290 3c 32 e1 3d 86 bf 48 be a2 7a 79 3e e4 2d fa 3d
       0.109959096 -0.1960431 0.24363187 0.12215784
0002a0 cc 2e cb 3d 8c df 9c bd 74 a1 8e 3d 80 22 67 3d
       0.09921035 -0.07659826 0.069643885 0.056429386
0002b0 06 33 93 bd bc 45 18 3e 10 00 81 bc 00 92 62 ba
       -0.07187466 0.14870352 -0.0157471 -0.00086429715
0002c0 60 de c1 bd 46 1e 27 3e f0 86 7e 3d 9b af 74 be
       -0.09466243 0.16320142 0.062140405 -0.23895113
0002d0 40 79 c7 3c 6e 0b 0d be 40 4b 76 bc a0 90 f6 3d
       0.024349809 -0.13773891 -0.015032589 0.12039304
0002e0 f2 f5 78 be e0 ba 2d bc 5e 03 6a 3e 74 42 4a 3e
       -0.2431257 -0.0106036365 0.22852847 0.19751912
0002f0 90 a4 9d 3d 06 bf 0c be 68 78 3d 3d 32 3f 01 3e
       0.076974034 -0.13744745 0.046257406 0.12621763
000300 0f 32 30 be fb 37 81 3e 04 71 5a 3e 60 06 e7 3c
       -0.17206596 0.25238022 0.21332175 0.028201282
000310 f8 55 71 be bc 26 0f 3e 88 f9 62 bd 89 2f 71 be
       -0.2356795 0.1397962 -0.055413753 -0.2355329
000320 fe 7f 58 3e 94 04 c4 3d 0c 98 61 be c8 18 48 bd
       0.21142575 0.09571186 -0.22030658 -0.04885176
000330 10 db f0 bd 25 a5 85 3e 99 a2 6e be 2a ee b6 bd
       -0.11760533 0.26102558 -0.23304214 -0.08932145
000340 58 59 b8 bd d0 c6 c1 bd fc d7 86 3d 3e d9 21 be
       -0.09001416 -0.094617486 0.065841645 -0.15805528
000350 68 c7 80 be 34 17 2b 3e cb 4d 83 be 70 f3 7b 3d
       -0.25152135 0.1670807 -0.2564529 0.061511457
000360 1a b1 58 3e d8 1f f4 3d 60 10 91 bd 00 77 85 3d
       0.21161309 0.11920136 -0.070832014 0.06516838
000370 bc e9 16 3e 3d e4 70 be 27 bc 82 3e c6 30 63 be
       0.147376 -0.23524566 0.25534174 -0.22186574
000380 3e ab c8 bd c2 d8 6f 3e 3d 4b 80 3e 70 08 c3 bd
       -0.09798287 0.2342253 0.25057402 -0.09523094
000390 94 5b e0 3d 26 bf 2d 3e 24 6e 4a 3e 80 02 0a bd
       0.10954967 0.16967449 0.19768578 -0.03369379
0003a0 40 94 a9 3b 6e 9f 31 3e 88 e5 3c bd 1e b0 5d 3e
       0.0051751435 0.17345974 -0.046117336 0.21649215
0003b0 ea c1 94 bd 70 9b 4c 3d 70 43 b5 3d 30 75 19 3e
       -0.07263549 0.049952924 0.08850753 0.1498611
0003c0 40 d3 61 3c d0 db bd 3c 26 74 16 be a2 d8 6a be
       0.013783276 0.023176104 -0.14692745 -0.22934201
0003d0 6a 36 72 be be f2 43 3e 36 59 b8 bd 5f e4 5d be
       -0.2365357 0.19135568 -0.09001391 -0.21669148
0003e0 1c 51 4c 3e c0 d6 1a 3e 30 17 69 be 70 f2 b8 bc
       0.19952816 0.15120983 -0.22762752 -0.02257654
0003f0 00 5d f1 3b fe ba 1c 3e 70 27 8a 3d 80 21 3d bb
       0.007365823 0.15305707 0.06745803 -0.002885908

ActorDistributionNetwork/EncodingNetwork/dense_1/MatMul f4 [64, 64]
000000 7f 53 4b be 7a 36 a6 bd f2 27 82 bd 92 af bf bd
       -0.1985607 -0.08115859 -0.06355275 -0.09359659
000010 d8 75 09 be f8 26 cf bc 38 a3 da 3c 1c 83 b8 bd
       -0.1342386 -0.025287136 0.026689157 -0.09009382
000020 2a 38 b3 3d 27 d5 2e be 8c 98 4b bd 58 e3 b3 3c
       0.08750947 -0.17073499 -0.049706027 0.021958992
000030 ed 65 5d 3e 54 f5 6e 3d 70 2e 4f bc a8 dd bc bc
       0.21620913 0.058339432 -0.012645349 -0.023054913
000040 d2 93 19 be 11 3d 3a 3e cb 0f 54 3e a9 aa 2e 3e
       -0.14997795 0.18187357 0.2070915 0.17057289
000050 aa 89 94 3d 96 7c c1 3d a0 63 8d 3c ce 48 b6 3d
       0.0725282 0.09447591 0.017259419 0.08900605
000060 80 53 56 3c 36 60 fa 3d 06 59 a5 bd 4e 68 1c be
       0.013081431 0.12225382 -0.080736205 -0.15274164
000070 13 f7 28 3e ad 19 34 be 98 25 81 3c 90 49 9c bd
       0.16500501 -0.1758792 0.015764996 -0.076312184
000080 20 ca 48 be 0c 18 1c be c4 a6 27 3d 34 32 4b 3d
       -0.19608355 -0.15243548 0.040930524 0.049608424
000090 d4 8c 35 3d e5 81 14 3e 62 10 06 be 5e ae 86 bd
       0.044323757 0.14502676 -0.13092187 -0.06576227
0000a0 80 c7 ac ba 9e 79 32 be 86 0e bf 3d 1a ca b0 3d
       -0.0013182014 -0.17429206 0.09328942 0.08632298
0000b0 15 0c 16 3e 7c 87 02 bd bc 5c 48 bd 2e 0e 8c bd
       0.14653046 -0.03186749 -0.048916563 -0.06838642
0000c0 d8 e0 85 bc 20 96 15 3c c1 55 29 be 2a ab 1e be
       -0.016342565 0.009130031 -0.16536619 -0.15494981
0000d0 c2 a2 c3 3d ec b6 32 3d 97 3e 36 3e 96 1c f0 3d
       0.09552528 0.04363148 0.17797314 0.11724202
0000e0 39 b4 1b 3e 44 b9 61 3d 91 be 45 3e 94 e2 13 3d
       0.15205468 0.055108324 0.19310977 0.036104754
0000f0 4f 0d 4c 3e 2c 66 9b bd 41 1c 4d 3e 68 d6 c7 bc
       0.19926952 -0.07587847 0.2003031 -0.024394229
000100 e2 43 98 bd 9c bb 72 3d cc 8c 09 be bd da 01 3e
       -0.074348226 0.05926095 -0.13432616 0.12681098
000110 4c cc 00 3d cd b7 5c be 19 30 5d 3e 30 55 55 bd
       0.031444833 -0.2155449 0.21600379 -0.052083194
000120 3c ee 65 3d 40 75 23 bc 72 eb 80 bd 5d 2f 55 be
       0.0561354 -0.009976685 -0.06294908 -0.20818849
000130 12 c5 8a 3d 95 56 00 3e c8 c7 ba bd f7 3a 41 be
       0.067758694 0.12533028 -0.091201365 -0.1887015
000140 5a d9 08 be b4 b6 b0 bd 19 56 13 3e 15 bf 48 3e
       -0.13364163 -0.08628598 0.14388312 0.19604142
000150 80 bc 14 bb 4f ff 4c 3e 6c e9 8f bd ba f1 9c 3d
       -0.0022695363 0.20019267 -0.070269436 0.07663293
000160 f9 5c 59 be 54 40 7c 3d d6 66 9a bd 78 6a 94 3c
       -0.21226873 0.061584786 -0.07539146 0.018117175
000170 46 07 56 be 7c 82 30 be 6c be 0e bd aa 13 bb bd
       -0.20901212 -0.17237276 -0.03484957 -0.0913461
000180 22 9d 43 be 6c 36 1d be 5c c7 5c 3d fc a3 06 be
       -0.1910291 -0.15352792 0.05390106 -0.13148493
000190 7c 9f 9c bd c2 7b 8d 3d c6 c3 99 3d 00 3c 14 be
       -0.07647607 0.069083706 0.07508044 -0.14476013
0001a0 40 2d 8f bd 7c fb 45 be 99 6a 39 3e 90 02 2c be
       -0.06991053 -0.19334215 0.1810707 -0.16797853
0001b0 44 11 2a 3d f3 69 28 3e 43 e0 d2 bd c2 fd a2 3d
       0.041520372 0.16446666 -0.10296681 0.07958557
0001c0 c4 9b 3e 3d 01 94 10 3e 52 e9 8c 3d 1f 68 34 3e
       0.04653527 0.14118959 0.0688044 0.17617844
0001d0 f0 38 be bc 20 7a 8c bc c6 67 ab 3d 84 ce 29 3d
       -0.02322051 -0.017148077 0.083694026 0.041456714
0001e0 38 da 66 bd 98 dc 12 bd 00 b6 b9 b9 fe 52 ef bd
       -0.056360453 -0.035854906 -0.0003542155 -0.116857514
0001f0 5a 67 0e be 86 31 eb bd b0 2c 18 bd 70 4f 8f bc
       -0.13906613 -0.11484055 -0.037151992 -0.017493933
000200 a1 08 20 be f5 19 cd bd 7e 6f a8 3d 8a fd a8 bd
       -0.15628292 -0.100147165 0.082243904 -0.08251484
000210 6f 5f 37 3e 88 08 8a 3c 00 58 63 ba 8b 6b f2 bd
       0.17907499 0.016849771 -0.0008672476 -0.118369184
000220 dc ac 32 bd 00 4d b4 3b 55 ef 4f 3e de 4e 12 be
       -0.043621883 0.005502343 0.20306142 -0.14287898
000230 ca 4a d2 bd 60 11 b6 3c 94 c0 90 bd 47 bb 11 3e
       -0.10268171 0.022225082 -0.07067981 0.14231597
000240 c1 f3 3c 3e 30 14 46 3c d4 a9 57 bd 19 cc c2 bd
       0.1845236 0.012089774 -0.052652195 -0.09511585
000250 58 a4 cb 3c 84 40 93 bd d3 64 5c 3e 00 ba 18 be
       0.024858639 -0.0719004 0.21522836 -0.14914703
000260 8b 5f 51 3e f8 ae a9 3c 46 85 88 3d 79 3d 11 3e
       0.20446603 0.020713314 0.06666045 0.14183606
000270 40 f6 1a bc e0 4b 62 3c 94 ef d2 bd da 44 82 bd
       -0.009458125 0.013812035 -0.10299602 -0.06360789
000280 00 44 c6 b9 c0 d0 cf bd fe d4 a9 3d ea 3d c1 3d
       -0.00037816167 -0.10147238 0.08292578 0.09435637
000290 89 c1 39 3e 17 7e 11 3e 20 d5 de 3b 62 a8 8c 3d
       0.18140234 0.14208256 0.006800309 0.06868054
0002a0 a0 dd af bc a3 61 f2 bd 12 ea 57 be 99 58 36 3e
       -0.021467984 -0.11835029 -0.21085384 0.17807235
0002b0 94 f7 b6 bd 01 9d 13 3e 01 7e 19 3e c6 df 02 be
       -0.089339405 0.14415361 0.14989473 -0.12780675
0002c0 3a 47 a3 bd 95 d8 28 3e 50 82 f7 3c 88 e4 36 bd
       -0.0797257 0.1648887 0.030213505 -0.044651538
0002d0 8f 90 dc bd cc aa da bd 70 4c 56 bd ec 29 e4 bd
       -0.1076976 -0.10677108 -0.05231899 -0.111408085
0002e0 fc ea aa bd 73 ef 43 3e 74 28 4b be 70 18 a6 3c
       -0.08345601 0.19134311 -0.1983965 0.020275325
0002f0 8c b8 51 3d 20 a3 63 bd b4 f0 52 3d aa 4a 9a 3d
       0.05120139 -0.05557549 0.051499084 0.07533772
000300 50 85 81 bc c7 44 2d 3e 97 d6 55 3e d8 4a cc bc
       -0.015810639 0.16920768 0.20882641 -0.024938032
000310 4e 92 a2 3d 4b 1a f6 bd 3b 55 2d 3e 80 b4 db bb
       0.07938062 -0.12016734 0.16927044 -0.006704867
000320 a8 b1 70 bd 4d f5 35 3e 72 03 15 be f9 89 26 3e
       -0.058763176 0.17769356 -0.14552096 0.1626357
000330 32 ae 38 be 95 07 53 3e b1 f0 1a 3e e0 2a f2 3b
       -0.180352 0.20608361 0.15130879 0.007390365
000340 92 c0 9e 3d 54 21 40 3d c3 b1 27 3e 8a 07 f6 3d
       0.077515736 0.046906784 0.16376404 0.12013157
000350 5c f8 4b 3d 42 b1 ba 3d 3b 1b 02 3e f9 7d f5 bd
       0.0497974 0.091158405 0.127057 -0.11986918
000360 33 fe 44 3e 09 0c e5 bd 5f 57 11 3e 9f b7 d1 bd
       0.19237594 -0.11183936 0.14193486 -0.10240101
000370 31 42 e8 bd af 97 27 3e 90 61 a9 bc fa 66 3d be
       -0.1134075 0.16366456 -0.020676404 -0.18496314
000380 6d 0e 52 3e 42 76 e8 3d 58 81 ec 3c e6 f4 ac bd
       0.20513315 0.11350681 0.02887027 -0.08445148
000390 0e 75 1d be 80 4a 44 3c 84 61 32 bd 9e 09 f7 3d
       -0.15376684 0.011980653 -0.04355003 0.12062381
0003a0 f8 55 48 bd e0 1a ff bc 40 8f 55 be 58 94 a2 bd
       -0.04891011 -0.031140745 -0.20855427 -0.079384506
0003b0 40 f4 81 3c a2 33 8d bd 52 91 27 be 42 7f fd 3d
       0.015863538 -0.06894614 -0.16364029 0.12377788
0003c0 5a bd b4 bd 1a 71 0f be d1 39 bc bd 0b ec 44 3e
       -0.088251784 -0.14007989 -0.09190715 0.19230668
0003d0 25 4b 48 3e 10 72 8d bd 30 d9 0a be 08 03 14 be
       0.19559915 -0.06906521 -0.13559413 -0.14454281
0003e0 1f 80 17 be b8 f3 60 bd f4 b2 79 3d ef a0 19 be
       -0.14794968 -0.05491993 0.06096168 -0.15002798
0003f0 1a d1 d0 3d 15 fc 5a be 94 79 95 bd 7b bd 13 3e
       0.10196133 -0.21385224 -0.0729858 0.1442775

ActorDistributionNetwork/TanhNormalProjectionNetwork/projection_layer/MatMul f4 [8, 64]
000000 54 f6 15 be ec 13 01 3e d8 a9 0b 3e 20 9a aa 3d
       -0.14644748 0.12605256 0.13639009 0.08330178
000010 30 55 71 be 88 39 11 3e 17 99 00 be c4 40 ab 3d
       -0.23567653 0.14182103 -0.12558399 0.083619624
000020 6a 41 8c bd 9b 4f 1c be ac 10 2d 3e e4 02 d6 3d
       -0.06848414 -0.15264742 0.16900891 0.1044977
000030 c4 c2 5c 3e e0 e3 3b 3c 40 68 91 bc d0 0f 9a bc
       0.21558672 0.011467904 -0.017749906 -0.018806368
000040 e0 be 0e 3d 1f e0 17 be 20 d1 89 bc 90 5e 5e 3e
       0.03485 -0.14831589 -0.016823351 0.2171576
000050 3a 4b b8 bd e0 33 4d 3d 20 40 8a 3e 80 fa f2 3b
       -0.08998723 0.0500983 0.27002048 0.007415116
000060 1a 60 bb bd 18 03 df 3d d8 54 a8 bd 18 3b 52 3e
       -0.09149189 0.10889262 -0.08219308 0.20530355
000070 42 bd ad bd 90 b0 34 be 88 a2 bf 3d 42 d1 87 3e
       -0.08483364 -0.17645478 0.09357172 0.2652684
000080 90 4a fc bc 8a 79 07 3e 42 cd 3f be 52 55 47 3e
       -0.030797273 0.13229957 -0.18730643 0.19466141
000090 e0 b2 f6 bc 66 4c 8a be 6b a1 75 be 88 f7 ca 3d
       -0.030114591 -0.27011412 -0.23987357 0.09910494
0000a0 38 15 fa bd a5 55 60 be 9e 57 38 3e 02 ea 1e 3e
       -0.122110784 -0.21907671 0.18002173 0.15518954
0000b0 f8 0a 66 3d 20 f3 38 3e 62 d4 57 be d2 17 09 3e
       0.056162804 0.18061495 -0.21077111 0.13387993
0000c0 24 2a 2d 3e f4 01 89 3e a0 1d 5d 3e fe 3b 36 be
       0.16910607 0.26759303 0.21593332 -0.17796323
0000d0 3e b9 91 3e b2 44 3c 3e 00 17 18 bc bb bb 02 be
       0.2846164 0.1838558 -0.009282827 -0.12766926
0000e0 6c dc cf 3d 10 32 85 be 8a 72 81 3e b0 58 5d bd
       0.10149464 -0.26014757 0.252827 -0.054039657
0000f0 6c 5b 82 3d 3c fa 5b 3e ba af 2c be c4 bb 73 bd
       0.063650936 0.21482176 -0.1686391 -0.05950524
000100 0c fe 5f be 1f 18 88 be 2c b7 71 bd 8a 38 43 be
       -0.21874255 -0.26580903 -0.059012577 -0.19064537
000110 22 81 87 be 54 56 85 be e8 c8 36 be 24 d5 3e 3e
       -0.26465708 -0.26042426 -0.17850077 0.18635994
000120 bc 3e 95 bd 00 76 62 bb b4 1b 23 3e 72 72 20 3e
       -0.07287356 -0.0034555197 0.15928537 0.15668657
000130 70 62 5b 3e f5 38 7a be 70 1e 1b 3d 90 84 92 be
       0.2142427 -0.2443579 0.037870824 -0.28616762
000140 1a 02 40 3e da 8d 91 3e e0 44 00 bd 98 3f a0 3d
       0.18750802 0.28428537 -0.031315684 0.078246295
000150 50 31 36 3d 56 af 34 3e 9c 1d 03 be e0 9a f6 3d
       0.04448062 0.1764501 -0.12804264 0.12041259
000160 78 51 56 3e e4 ed 6e 3e f0 6b ec 3c c8 b4 54 3d
       0.20929515 0.23332936 0.028860062 0.05193022
000170 2c 55 5e 3e 34 49 cf bd a6 8f 43 be c4 19 9e 3d
       0.21712178 -0.10121384 -0.19097766 0.07719758
000180 70 b4 99 bc 4a 23 e5 bd f8 f0 02 3d ae d2 30 3e
       -0.018762797 -0.111883715 0.031968087 0.17267868
000190 b5 00 83 be f0 69 ef 3c 5c d4 68 be 58 69 0f 3e
       -0.25586477 0.02922532 -0.22737259 0.14005029
0001a0 06 b3 8b bd 9a 93 f9 bd 24 11 60 3e 0a 30 0f 3e
       -0.068212554 -0.12186356 0.21881539 0.13983169
0001b0 f8 4c 16 3e 4e b1 84 bd c8 b1 10 bd ae 85 1d be
       0.14677799 -0.06479131 -0.035325795 -0.15383026
0001c0 40 d3 0b 3e b6 9e 91 be 00 61 2d bc 3c 69 44 be
       0.13654804 -0.284414 -0.010582209 -0.19180769
0001d0 f2 a0 3c 3e 10 89 70 3d 88 c1 41 3e b0 8c 2a be
       0.18420771 0.058724463 0.18921483 -0.1665523
0001e0 14 94 34 bd d6 50 55 be 00 27 18 3d 2a 1b 5c be
       -0.04408653 -0.20831618 0.03714657 -0.21494737
0001f0 80 ab 5d bc 68 36 b8 3d 66 19 3e 3e c6 35 a2 bd
       -0.013529658 0.08994752 0.18564376 -0.07920413
000200 c0 35 ca 3b 28 69 91 3e 38 0e 04 3e 40 9e 0b bd
       0.0061709583 0.2840054 0.12896049 -0.034086466
000210 d0 0d c7 bc 5a 73 3d 3e 15 01 8b be a8 63 a9 3d
       -0.024298579 0.18501034 -0.27149263 0.08270961
000220 c8 f7 06 3e 2c eb 5a bd 2e 72 8e 3e e8 8b 75 3e
       0.13180459 -0.053446934 0.27821487 0.23979151
000230 bc 75 cd 3d 6c f1 89 3e 28 c4 76 3e 00 89 47 3d
       0.10032222 0.26942003 0.24098265 0.048714638
000240 26 92 38 be f8 6d 65 3e 18 ef 40 3d 34 49 b8 3d
       -0.18024501 0.22405231 0.047103018 0.089983374
000250 78 bc 5b 3e 88 19 66 3d d0 a5 64 3e f2 70 1a be
       0.21458614 0.056176692 0.22328877 -0.15082148
000260 4e 33 13 3e 1f 29 36 be a0 30 91 3d 0c 84 78 3e
       0.1437504 -0.17789124 0.070893526 0.24269122
000270 46 93 8c 3e 9c 6c 29 be 28 d3 8c be e8 73 54 3e
       0.2745611 -0.16545337 -0.2750485 0.2074734
000280 e8 23 8d 3e 60 a7 63 3e 1e 93 81 be 3a de 31 be
       0.27566457 0.22231817 -0.25307554 -0.17369929
000290 ea 45 7d be be 37 43 3e 80 a4 66 3b 6c 7d 6f 3e
       -0.24733701 0.19064233 0.0035193264 0.23387688
0002a0 3e b7 6c be 96 75 56 3e de 3e 87 3e 14 a9 1c be
       -0.23116776 0.20943293 0.2641515 -0.15298873
0002b0 48 48 a0 bd 00 ba 16 ba 5e f4 04 3e 20 2f 5f 3e
       -0.078262866 -0.0005749762 0.12983844 0.2179532
0002c0 9a fd 4b be 90 44 fd 3c aa a8 85 bd c4 eb 80 be
       -0.1992096 0.030916482 -0.06526311 -0.25179875
0002d0 5b b8 7c be b0 13 7b 3d 38 8d 37 3e 50 c4 6d bd
       -0.24679701 0.061298072 0.17924964 -0.058048546
0002e0 6c ce b8 bd 72 2f f0 bd 1c a6 ac 3d ba e8 7f be
       -0.09023747 -0.117277995 0.0843012 -0.24991122
0002f0 02 0b 82 be 2e 1f 67 be c0 e0 08 3d 86 06 8e bd
       -0.25399023 -0.22570488 0.033417463 -0.06934838
000300 c4 44 51 bd 70 51 1c 3d 3c 54 11 3e 21 17 61 be
       -0.05109097 0.038163602 0.14192289 -0.21981479
000310 f0 19 e1 3d 5e 4a 44 3e 01 00 1d be b4 1b 3a 3e
       0.10991275 0.19168994 -0.15332033 0.1817463
000320 84 b9 23 3e 22 b2 01 be 74 9d 14 3e 24 1c 41 be
       0.15988737 -0.12665609 0.14513189 -0.18858391
000330 b8 ad 3b 3d 3e c5 6a be 7c a1 35 bd 5b 97 17 be
       0.045819968 -0.22926804 -0.044343457 -0.14803831
000340 55 7b 93 be 5f dc 67 be 00 93 81 3e ae ac f7 bd
       -0.28805032 -0.22642659 0.25307465 -0.12093483
000350 80 d6 ac 3d 2c 79 df bd d4 dc f2 3d 00 4f e0 ba
       0.0843935 -0.109117836 0.11858526 -0.0017113388
000360 02 7d f1 bd 40 e5 fd 3c a3 c2 13 be ee ff 8e be
       -0.117914215 0.030993104 -0.14429717 -0.27929634
000370 a8 b0 4f be 20 b3 50 3c 5a 7a 80 3e db ce 90 be
       -0.20282233 0.012738019 0.25093347 -0.28282818
000380 af 5f 87 be 40 fb 3e bd 58 11 8d 3e 92 c3 28 3e
       -0.26440188 -0.04662633 0.27552295 0.16480854
000390 8c 54 31 3e 78 22 53 be 98 c7 25 be 60 0a 91 3d
       0.17317408 -0.20618618 -0.1618942 0.07082057
0003a0 3d 66 8e be 3e 88 b6 bd d8 c0 69 3d 40 d2 fb bb
       -0.27812377 -0.08912705 0.057068676 -0.007684976
0003b0 7c aa 4d 3e 00 70 b9 39 e8 f9 51 bd a6 71 8d be
       0.20084566 0.00035369396 -0.05126372 -0.2762577
0003c0 62 0b 61 be 10 58 5d 3e 6e 17 dc bd 70 f8 92 bd
       -0.21976998 0.21615624 -0.10746656 -0.07176292
0003d0 e0 b1 cf 3d 32 c8 49 3e 92 42 f8 bd 93 13 15 be
       0.10141349 0.19705275 -0.12122072 -0.14558248
0003e0 c8 cb 7c 3e 62 b3 3d be 48 56 30 3d 2e 67 c5 bd
       0.24687111 -0.1852546 0.043051034 -0.096388206
0003f0 00 5b 1f 3c a0 c7 6c 3e 2c c8 70 3e 20 ae 15 3c
       0.009726286 0.23123026 0.2351386 0.009135753
